{"class_name": "Model", "keras_version": "2.1.6", "config": {"layers": [{"class_name": "InputLayer", "config": {"dtype": "float32", "batch_input_shape": [null, 256, 256, 1], "name": "input_1", "sparse": false}, "inbound_nodes": [], "name": "input_1"}, {"class_name": "Conv2D", "config": {"kernel_constraint": null, "kernel_initializer": {"class_name": "VarianceScaling", "config": {"distribution": "uniform", "scale": 1.0, "seed": null, "mode": "fan_avg"}}, "name": "conv2d_1", "bias_regularizer": null, "bias_constraint": null, "activation": "relu", "trainable": true, "data_format": "channels_last", "padding": "same", "strides": [1, 1], "dilation_rate": [1, 1], "kernel_regularizer": {"class_name": "L1L2", "config": {"l2": 0.00019999999494757503, "l1": 0.0}}, "filters": 12, "bias_initializer": {"class_name": "Zeros", "config": {}}, "use_bias": true, "activity_regularizer": null, "kernel_size": [3, 3]}, "inbound_nodes": [[["input_1", 0, 0, {}]]], "name": "conv2d_1"}, {"class_name": "BatchNormalization", "config": {"beta_constraint": null, "gamma_initializer": {"class_name": "Ones", "config": {}}, "moving_mean_initializer": {"class_name": "Zeros", "config": {}}, "name": "batch_normalization_1", "epsilon": 0.001, "trainable": true, "moving_variance_initializer": {"class_name": "Ones", "config": {}}, "beta_initializer": {"class_name": "Zeros", "config": {}}, "scale": true, "axis": -1, "gamma_constraint": null, "gamma_regularizer": null, "beta_regularizer": null, "momentum": 0.99, "center": true}, "inbound_nodes": [[["conv2d_1", 0, 0, {}]]], "name": "batch_normalization_1"}, {"class_name": "Conv2D", "config": {"kernel_constraint": null, "kernel_initializer": {"class_name": "VarianceScaling", "config": {"distribution": "uniform", "scale": 1.0, "seed": null, "mode": "fan_avg"}}, "name": "conv2d_2", "bias_regularizer": null, "bias_constraint": null, "activation": "relu", "trainable": true, "data_format": "channels_last", "padding": "same", "strides": [1, 1], "dilation_rate": [1, 1], "kernel_regularizer": {"class_name": "L1L2", "config": {"l2": 0.00019999999494757503, "l1": 0.0}}, "filters": 12, "bias_initializer": {"class_name": "Zeros", "config": {}}, "use_bias": true, "activity_regularizer": null, "kernel_size": [3, 3]}, "inbound_nodes": [[["batch_normalization_1", 0, 0, {}]]], "name": "conv2d_2"}, {"class_name": "BatchNormalization", "config": {"beta_constraint": null, "gamma_initializer": {"class_name": "Ones", "config": {}}, "moving_mean_initializer": {"class_name": "Zeros", "config": {}}, "name": "batch_normalization_2", "epsilon": 0.001, "trainable": true, "moving_variance_initializer": {"class_name": "Ones", "config": {}}, "beta_initializer": {"class_name": "Zeros", "config": {}}, "scale": true, "axis": -1, "gamma_constraint": null, "gamma_regularizer": null, "beta_regularizer": null, "momentum": 0.99, "center": true}, "inbound_nodes": [[["conv2d_2", 0, 0, {}]]], "name": "batch_normalization_2"}, {"class_name": "Concatenate", "config": {"trainable": true, "name": "concatenate_1", "axis": -1}, "inbound_nodes": [[["batch_normalization_1", 0, 0, {}], ["batch_normalization_2", 0, 0, {}]]], "name": "concatenate_1"}, {"class_name": "Conv2D", "config": {"kernel_constraint": null, "kernel_initializer": {"class_name": "VarianceScaling", "config": {"distribution": "uniform", "scale": 1.0, "seed": null, "mode": "fan_avg"}}, "name": "conv2d_3", "bias_regularizer": null, "bias_constraint": null, "activation": "relu", "trainable": true, "data_format": "channels_last", "padding": "same", "strides": [1, 1], "dilation_rate": [1, 1], "kernel_regularizer": {"class_name": "L1L2", "config": {"l2": 0.00019999999494757503, "l1": 0.0}}, "filters": 12, "bias_initializer": {"class_name": "Zeros", "config": {}}, "use_bias": true, "activity_regularizer": null, "kernel_size": [3, 3]}, "inbound_nodes": [[["concatenate_1", 0, 0, {}]]], "name": "conv2d_3"}, {"class_name": "BatchNormalization", "config": {"beta_constraint": null, "gamma_initializer": {"class_name": "Ones", "config": {}}, "moving_mean_initializer": {"class_name": "Zeros", "config": {}}, "name": "batch_normalization_3", "epsilon": 0.001, "trainable": true, "moving_variance_initializer": {"class_name": "Ones", "config": {}}, "beta_initializer": {"class_name": "Zeros", "config": {}}, "scale": true, "axis": -1, "gamma_constraint": null, "gamma_regularizer": null, "beta_regularizer": null, "momentum": 0.99, "center": true}, "inbound_nodes": [[["conv2d_3", 0, 0, {}]]], "name": "batch_normalization_3"}, {"class_name": "Concatenate", "config": {"trainable": true, "name": "concatenate_2", "axis": -1}, "inbound_nodes": [[["batch_normalization_1", 0, 0, {}], ["batch_normalization_2", 0, 0, {}], ["batch_normalization_3", 0, 0, {}]]], "name": "concatenate_2"}, {"class_name": "Conv2D", "config": {"kernel_constraint": null, "kernel_initializer": {"class_name": "VarianceScaling", "config": {"distribution": "uniform", "scale": 1.0, "seed": null, "mode": "fan_avg"}}, "name": "conv2d_4", "bias_regularizer": null, "bias_constraint": null, "activation": "relu", "trainable": true, "data_format": "channels_last", "padding": "same", "strides": [1, 1], "dilation_rate": [1, 1], "kernel_regularizer": {"class_name": "L1L2", "config": {"l2": 0.00019999999494757503, "l1": 0.0}}, "filters": 32, "bias_initializer": {"class_name": "Zeros", "config": {}}, "use_bias": true, "activity_regularizer": null, "kernel_size": [3, 3]}, "inbound_nodes": [[["concatenate_2", 0, 0, {}]]], "name": "conv2d_4"}, {"class_name": "BatchNormalization", "config": {"beta_constraint": null, "gamma_initializer": {"class_name": "Ones", "config": {}}, "moving_mean_initializer": {"class_name": "Zeros", "config": {}}, "name": "batch_normalization_4", "epsilon": 0.001, "trainable": true, "moving_variance_initializer": {"class_name": "Ones", "config": {}}, "beta_initializer": {"class_name": "Zeros", "config": {}}, "scale": true, "axis": -1, "gamma_constraint": null, "gamma_regularizer": null, "beta_regularizer": null, "momentum": 0.99, "center": true}, "inbound_nodes": [[["conv2d_4", 0, 0, {}]]], "name": "batch_normalization_4"}, {"class_name": "MaxPooling2D", "config": {"name": "max_pooling2d_1", "trainable": true, "data_format": "channels_last", "pool_size": [2, 2], "padding": "valid", "strides": [2, 2]}, "inbound_nodes": [[["batch_normalization_4", 0, 0, {}]]], "name": "max_pooling2d_1"}, {"class_name": "Dropout", "config": {"rate": 0.3, "noise_shape": null, "trainable": true, "seed": null, "name": "dropout_1"}, "inbound_nodes": [[["max_pooling2d_1", 0, 0, {}]]], "name": "dropout_1"}, {"class_name": "Conv2D", "config": {"kernel_constraint": null, "kernel_initializer": {"class_name": "VarianceScaling", "config": {"distribution": "uniform", "scale": 1.0, "seed": null, "mode": "fan_avg"}}, "name": "conv2d_5", "bias_regularizer": null, "bias_constraint": null, "activation": "relu", "trainable": true, "data_format": "channels_last", "padding": "same", "strides": [1, 1], "dilation_rate": [1, 1], "kernel_regularizer": {"class_name": "L1L2", "config": {"l2": 0.00019999999494757503, "l1": 0.0}}, "filters": 12, "bias_initializer": {"class_name": "Zeros", "config": {}}, "use_bias": true, "activity_regularizer": null, "kernel_size": [3, 3]}, "inbound_nodes": [[["dropout_1", 0, 0, {}]]], "name": "conv2d_5"}, {"class_name": "BatchNormalization", "config": {"beta_constraint": null, "gamma_initializer": {"class_name": "Ones", "config": {}}, "moving_mean_initializer": {"class_name": "Zeros", "config": {}}, "name": "batch_normalization_5", "epsilon": 0.001, "trainable": true, "moving_variance_initializer": {"class_name": "Ones", "config": {}}, "beta_initializer": {"class_name": "Zeros", "config": {}}, "scale": true, "axis": -1, "gamma_constraint": null, "gamma_regularizer": null, "beta_regularizer": null, "momentum": 0.99, "center": true}, "inbound_nodes": [[["conv2d_5", 0, 0, {}]]], "name": "batch_normalization_5"}, {"class_name": "Conv2D", "config": {"kernel_constraint": null, "kernel_initializer": {"class_name": "VarianceScaling", "config": {"distribution": "uniform", "scale": 1.0, "seed": null, "mode": "fan_avg"}}, "name": "conv2d_6", "bias_regularizer": null, "bias_constraint": null, "activation": "relu", "trainable": true, "data_format": "channels_last", "padding": "same", "strides": [1, 1], "dilation_rate": [1, 1], "kernel_regularizer": {"class_name": "L1L2", "config": {"l2": 0.00019999999494757503, "l1": 0.0}}, "filters": 12, "bias_initializer": {"class_name": "Zeros", "config": {}}, "use_bias": true, "activity_regularizer": null, "kernel_size": [3, 3]}, "inbound_nodes": [[["batch_normalization_5", 0, 0, {}]]], "name": "conv2d_6"}, {"class_name": "BatchNormalization", "config": {"beta_constraint": null, "gamma_initializer": {"class_name": "Ones", "config": {}}, "moving_mean_initializer": {"class_name": "Zeros", "config": {}}, "name": "batch_normalization_6", "epsilon": 0.001, "trainable": true, "moving_variance_initializer": {"class_name": "Ones", "config": {}}, "beta_initializer": {"class_name": "Zeros", "config": {}}, "scale": true, "axis": -1, "gamma_constraint": null, "gamma_regularizer": null, "beta_regularizer": null, "momentum": 0.99, "center": true}, "inbound_nodes": [[["conv2d_6", 0, 0, {}]]], "name": "batch_normalization_6"}, {"class_name": "Concatenate", "config": {"trainable": true, "name": "concatenate_3", "axis": -1}, "inbound_nodes": [[["batch_normalization_5", 0, 0, {}], ["batch_normalization_6", 0, 0, {}]]], "name": "concatenate_3"}, {"class_name": "Conv2D", "config": {"kernel_constraint": null, "kernel_initializer": {"class_name": "VarianceScaling", "config": {"distribution": "uniform", "scale": 1.0, "seed": null, "mode": "fan_avg"}}, "name": "conv2d_7", "bias_regularizer": null, "bias_constraint": null, "activation": "relu", "trainable": true, "data_format": "channels_last", "padding": "same", "strides": [1, 1], "dilation_rate": [1, 1], "kernel_regularizer": {"class_name": "L1L2", "config": {"l2": 0.00019999999494757503, "l1": 0.0}}, "filters": 12, "bias_initializer": {"class_name": "Zeros", "config": {}}, "use_bias": true, "activity_regularizer": null, "kernel_size": [3, 3]}, "inbound_nodes": [[["concatenate_3", 0, 0, {}]]], "name": "conv2d_7"}, {"class_name": "BatchNormalization", "config": {"beta_constraint": null, "gamma_initializer": {"class_name": "Ones", "config": {}}, "moving_mean_initializer": {"class_name": "Zeros", "config": {}}, "name": "batch_normalization_7", "epsilon": 0.001, "trainable": true, "moving_variance_initializer": {"class_name": "Ones", "config": {}}, "beta_initializer": {"class_name": "Zeros", "config": {}}, "scale": true, "axis": -1, "gamma_constraint": null, "gamma_regularizer": null, "beta_regularizer": null, "momentum": 0.99, "center": true}, "inbound_nodes": [[["conv2d_7", 0, 0, {}]]], "name": "batch_normalization_7"}, {"class_name": "Concatenate", "config": {"trainable": true, "name": "concatenate_4", "axis": -1}, "inbound_nodes": [[["batch_normalization_5", 0, 0, {}], ["batch_normalization_6", 0, 0, {}], ["batch_normalization_7", 0, 0, {}]]], "name": "concatenate_4"}, {"class_name": "Conv2D", "config": {"kernel_constraint": null, "kernel_initializer": {"class_name": "VarianceScaling", "config": {"distribution": "uniform", "scale": 1.0, "seed": null, "mode": "fan_avg"}}, "name": "conv2d_8", "bias_regularizer": null, "bias_constraint": null, "activation": "relu", "trainable": true, "data_format": "channels_last", "padding": "same", "strides": [1, 1], "dilation_rate": [1, 1], "kernel_regularizer": {"class_name": "L1L2", "config": {"l2": 0.00019999999494757503, "l1": 0.0}}, "filters": 12, "bias_initializer": {"class_name": "Zeros", "config": {}}, "use_bias": true, "activity_regularizer": null, "kernel_size": [3, 3]}, "inbound_nodes": [[["concatenate_4", 0, 0, {}]]], "name": "conv2d_8"}, {"class_name": "BatchNormalization", "config": {"beta_constraint": null, "gamma_initializer": {"class_name": "Ones", "config": {}}, "moving_mean_initializer": {"class_name": "Zeros", "config": {}}, "name": "batch_normalization_8", "epsilon": 0.001, "trainable": true, "moving_variance_initializer": {"class_name": "Ones", "config": {}}, "beta_initializer": {"class_name": "Zeros", "config": {}}, "scale": true, "axis": -1, "gamma_constraint": null, "gamma_regularizer": null, "beta_regularizer": null, "momentum": 0.99, "center": true}, "inbound_nodes": [[["conv2d_8", 0, 0, {}]]], "name": "batch_normalization_8"}, {"class_name": "Concatenate", "config": {"trainable": true, "name": "concatenate_5", "axis": -1}, "inbound_nodes": [[["batch_normalization_5", 0, 0, {}], ["batch_normalization_6", 0, 0, {}], ["batch_normalization_7", 0, 0, {}], ["batch_normalization_8", 0, 0, {}]]], "name": "concatenate_5"}, {"class_name": "Conv2D", "config": {"kernel_constraint": null, "kernel_initializer": {"class_name": "VarianceScaling", "config": {"distribution": "uniform", "scale": 1.0, "seed": null, "mode": "fan_avg"}}, "name": "conv2d_9", "bias_regularizer": null, "bias_constraint": null, "activation": "relu", "trainable": true, "data_format": "channels_last", "padding": "same", "strides": [1, 1], "dilation_rate": [1, 1], "kernel_regularizer": {"class_name": "L1L2", "config": {"l2": 0.00019999999494757503, "l1": 0.0}}, "filters": 12, "bias_initializer": {"class_name": "Zeros", "config": {}}, "use_bias": true, "activity_regularizer": null, "kernel_size": [3, 3]}, "inbound_nodes": [[["concatenate_5", 0, 0, {}]]], "name": "conv2d_9"}, {"class_name": "BatchNormalization", "config": {"beta_constraint": null, "gamma_initializer": {"class_name": "Ones", "config": {}}, "moving_mean_initializer": {"class_name": "Zeros", "config": {}}, "name": "batch_normalization_9", "epsilon": 0.001, "trainable": true, "moving_variance_initializer": {"class_name": "Ones", "config": {}}, "beta_initializer": {"class_name": "Zeros", "config": {}}, "scale": true, "axis": -1, "gamma_constraint": null, "gamma_regularizer": null, "beta_regularizer": null, "momentum": 0.99, "center": true}, "inbound_nodes": [[["conv2d_9", 0, 0, {}]]], "name": "batch_normalization_9"}, {"class_name": "Concatenate", "config": {"trainable": true, "name": "concatenate_6", "axis": -1}, "inbound_nodes": [[["batch_normalization_5", 0, 0, {}], ["batch_normalization_6", 0, 0, {}], ["batch_normalization_7", 0, 0, {}], ["batch_normalization_8", 0, 0, {}], ["batch_normalization_9", 0, 0, {}]]], "name": "concatenate_6"}, {"class_name": "Conv2D", "config": {"kernel_constraint": null, "kernel_initializer": {"class_name": "VarianceScaling", "config": {"distribution": "uniform", "scale": 1.0, "seed": null, "mode": "fan_avg"}}, "name": "conv2d_10", "bias_regularizer": null, "bias_constraint": null, "activation": "relu", "trainable": true, "data_format": "channels_last", "padding": "same", "strides": [1, 1], "dilation_rate": [1, 1], "kernel_regularizer": {"class_name": "L1L2", "config": {"l2": 0.00019999999494757503, "l1": 0.0}}, "filters": 12, "bias_initializer": {"class_name": "Zeros", "config": {}}, "use_bias": true, "activity_regularizer": null, "kernel_size": [3, 3]}, "inbound_nodes": [[["concatenate_6", 0, 0, {}]]], "name": "conv2d_10"}, {"class_name": "BatchNormalization", "config": {"beta_constraint": null, "gamma_initializer": {"class_name": "Ones", "config": {}}, "moving_mean_initializer": {"class_name": "Zeros", "config": {}}, "name": "batch_normalization_10", "epsilon": 0.001, "trainable": true, "moving_variance_initializer": {"class_name": "Ones", "config": {}}, "beta_initializer": {"class_name": "Zeros", "config": {}}, "scale": true, "axis": -1, "gamma_constraint": null, "gamma_regularizer": null, "beta_regularizer": null, "momentum": 0.99, "center": true}, "inbound_nodes": [[["conv2d_10", 0, 0, {}]]], "name": "batch_normalization_10"}, {"class_name": "Concatenate", "config": {"trainable": true, "name": "concatenate_7", "axis": -1}, "inbound_nodes": [[["batch_normalization_5", 0, 0, {}], ["batch_normalization_6", 0, 0, {}], ["batch_normalization_7", 0, 0, {}], ["batch_normalization_8", 0, 0, {}], ["batch_normalization_9", 0, 0, {}], ["batch_normalization_10", 0, 0, {}]]], "name": "concatenate_7"}, {"class_name": "Conv2D", "config": {"kernel_constraint": null, "kernel_initializer": {"class_name": "VarianceScaling", "config": {"distribution": "uniform", "scale": 1.0, "seed": null, "mode": "fan_avg"}}, "name": "conv2d_11", "bias_regularizer": null, "bias_constraint": null, "activation": "relu", "trainable": true, "data_format": "channels_last", "padding": "same", "strides": [1, 1], "dilation_rate": [1, 1], "kernel_regularizer": {"class_name": "L1L2", "config": {"l2": 0.00019999999494757503, "l1": 0.0}}, "filters": 12, "bias_initializer": {"class_name": "Zeros", "config": {}}, "use_bias": true, "activity_regularizer": null, "kernel_size": [3, 3]}, "inbound_nodes": [[["concatenate_7", 0, 0, {}]]], "name": "conv2d_11"}, {"class_name": "BatchNormalization", "config": {"beta_constraint": null, "gamma_initializer": {"class_name": "Ones", "config": {}}, "moving_mean_initializer": {"class_name": "Zeros", "config": {}}, "name": "batch_normalization_11", "epsilon": 0.001, "trainable": true, "moving_variance_initializer": {"class_name": "Ones", "config": {}}, "beta_initializer": {"class_name": "Zeros", "config": {}}, "scale": true, "axis": -1, "gamma_constraint": null, "gamma_regularizer": null, "beta_regularizer": null, "momentum": 0.99, "center": true}, "inbound_nodes": [[["conv2d_11", 0, 0, {}]]], "name": "batch_normalization_11"}, {"class_name": "BatchNormalization", "config": {"beta_constraint": null, "gamma_initializer": {"class_name": "Ones", "config": {}}, "moving_mean_initializer": {"class_name": "Zeros", "config": {}}, "name": "batch_normalization_14", "epsilon": 0.001, "trainable": true, "moving_variance_initializer": {"class_name": "Ones", "config": {}}, "beta_initializer": {"class_name": "Zeros", "config": {}}, "scale": true, "axis": -1, "gamma_constraint": null, "gamma_regularizer": null, "beta_regularizer": null, "momentum": 0.99, "center": true}, "inbound_nodes": [[["batch_normalization_11", 0, 0, {}]]], "name": "batch_normalization_14"}, {"class_name": "MaxPooling2D", "config": {"name": "max_pooling2d_2", "trainable": true, "data_format": "channels_last", "pool_size": [2, 2], "padding": "valid", "strides": [2, 2]}, "inbound_nodes": [[["batch_normalization_14", 0, 0, {}]]], "name": "max_pooling2d_2"}, {"class_name": "Dropout", "config": {"rate": 0.3, "noise_shape": null, "trainable": true, "seed": null, "name": "dropout_2"}, "inbound_nodes": [[["max_pooling2d_2", 0, 0, {}]]], "name": "dropout_2"}, {"class_name": "Conv2D", "config": {"kernel_constraint": null, "kernel_initializer": {"class_name": "VarianceScaling", "config": {"distribution": "uniform", "scale": 1.0, "seed": null, "mode": "fan_avg"}}, "name": "conv2d_15", "bias_regularizer": null, "bias_constraint": null, "activation": "relu", "trainable": true, "data_format": "channels_last", "padding": "same", "strides": [1, 1], "dilation_rate": [1, 1], "kernel_regularizer": {"class_name": "L1L2", "config": {"l2": 0.00019999999494757503, "l1": 0.0}}, "filters": 12, "bias_initializer": {"class_name": "Zeros", "config": {}}, "use_bias": true, "activity_regularizer": null, "kernel_size": [3, 3]}, "inbound_nodes": [[["dropout_2", 0, 0, {}]]], "name": "conv2d_15"}, {"class_name": "BatchNormalization", "config": {"beta_constraint": null, "gamma_initializer": {"class_name": "Ones", "config": {}}, "moving_mean_initializer": {"class_name": "Zeros", "config": {}}, "name": "batch_normalization_15", "epsilon": 0.001, "trainable": true, "moving_variance_initializer": {"class_name": "Ones", "config": {}}, "beta_initializer": {"class_name": "Zeros", "config": {}}, "scale": true, "axis": -1, "gamma_constraint": null, "gamma_regularizer": null, "beta_regularizer": null, "momentum": 0.99, "center": true}, "inbound_nodes": [[["conv2d_15", 0, 0, {}]]], "name": "batch_normalization_15"}, {"class_name": "Conv2D", "config": {"kernel_constraint": null, "kernel_initializer": {"class_name": "VarianceScaling", "config": {"distribution": "uniform", "scale": 1.0, "seed": null, "mode": "fan_avg"}}, "name": "conv2d_16", "bias_regularizer": null, "bias_constraint": null, "activation": "relu", "trainable": true, "data_format": "channels_last", "padding": "same", "strides": [1, 1], "dilation_rate": [1, 1], "kernel_regularizer": {"class_name": "L1L2", "config": {"l2": 0.00019999999494757503, "l1": 0.0}}, "filters": 12, "bias_initializer": {"class_name": "Zeros", "config": {}}, "use_bias": true, "activity_regularizer": null, "kernel_size": [3, 3]}, "inbound_nodes": [[["batch_normalization_15", 0, 0, {}]]], "name": "conv2d_16"}, {"class_name": "BatchNormalization", "config": {"beta_constraint": null, "gamma_initializer": {"class_name": "Ones", "config": {}}, "moving_mean_initializer": {"class_name": "Zeros", "config": {}}, "name": "batch_normalization_16", "epsilon": 0.001, "trainable": true, "moving_variance_initializer": {"class_name": "Ones", "config": {}}, "beta_initializer": {"class_name": "Zeros", "config": {}}, "scale": true, "axis": -1, "gamma_constraint": null, "gamma_regularizer": null, "beta_regularizer": null, "momentum": 0.99, "center": true}, "inbound_nodes": [[["conv2d_16", 0, 0, {}]]], "name": "batch_normalization_16"}, {"class_name": "Concatenate", "config": {"trainable": true, "name": "concatenate_11", "axis": -1}, "inbound_nodes": [[["batch_normalization_15", 0, 0, {}], ["batch_normalization_16", 0, 0, {}]]], "name": "concatenate_11"}, {"class_name": "Conv2D", "config": {"kernel_constraint": null, "kernel_initializer": {"class_name": "VarianceScaling", "config": {"distribution": "uniform", "scale": 1.0, "seed": null, "mode": "fan_avg"}}, "name": "conv2d_17", "bias_regularizer": null, "bias_constraint": null, "activation": "relu", "trainable": true, "data_format": "channels_last", "padding": "same", "strides": [1, 1], "dilation_rate": [1, 1], "kernel_regularizer": {"class_name": "L1L2", "config": {"l2": 0.00019999999494757503, "l1": 0.0}}, "filters": 12, "bias_initializer": {"class_name": "Zeros", "config": {}}, "use_bias": true, "activity_regularizer": null, "kernel_size": [3, 3]}, "inbound_nodes": [[["concatenate_11", 0, 0, {}]]], "name": "conv2d_17"}, {"class_name": "BatchNormalization", "config": {"beta_constraint": null, "gamma_initializer": {"class_name": "Ones", "config": {}}, "moving_mean_initializer": {"class_name": "Zeros", "config": {}}, "name": "batch_normalization_17", "epsilon": 0.001, "trainable": true, "moving_variance_initializer": {"class_name": "Ones", "config": {}}, "beta_initializer": {"class_name": "Zeros", "config": {}}, "scale": true, "axis": -1, "gamma_constraint": null, "gamma_regularizer": null, "beta_regularizer": null, "momentum": 0.99, "center": true}, "inbound_nodes": [[["conv2d_17", 0, 0, {}]]], "name": "batch_normalization_17"}, {"class_name": "Concatenate", "config": {"trainable": true, "name": "concatenate_12", "axis": -1}, "inbound_nodes": [[["batch_normalization_15", 0, 0, {}], ["batch_normalization_16", 0, 0, {}], ["batch_normalization_17", 0, 0, {}]]], "name": "concatenate_12"}, {"class_name": "Conv2D", "config": {"kernel_constraint": null, "kernel_initializer": {"class_name": "VarianceScaling", "config": {"distribution": "uniform", "scale": 1.0, "seed": null, "mode": "fan_avg"}}, "name": "conv2d_18", "bias_regularizer": null, "bias_constraint": null, "activation": "relu", "trainable": true, "data_format": "channels_last", "padding": "same", "strides": [1, 1], "dilation_rate": [1, 1], "kernel_regularizer": {"class_name": "L1L2", "config": {"l2": 0.00019999999494757503, "l1": 0.0}}, "filters": 12, "bias_initializer": {"class_name": "Zeros", "config": {}}, "use_bias": true, "activity_regularizer": null, "kernel_size": [3, 3]}, "inbound_nodes": [[["concatenate_12", 0, 0, {}]]], "name": "conv2d_18"}, {"class_name": "BatchNormalization", "config": {"beta_constraint": null, "gamma_initializer": {"class_name": "Ones", "config": {}}, "moving_mean_initializer": {"class_name": "Zeros", "config": {}}, "name": "batch_normalization_18", "epsilon": 0.001, "trainable": true, "moving_variance_initializer": {"class_name": "Ones", "config": {}}, "beta_initializer": {"class_name": "Zeros", "config": {}}, "scale": true, "axis": -1, "gamma_constraint": null, "gamma_regularizer": null, "beta_regularizer": null, "momentum": 0.99, "center": true}, "inbound_nodes": [[["conv2d_18", 0, 0, {}]]], "name": "batch_normalization_18"}, {"class_name": "Concatenate", "config": {"trainable": true, "name": "concatenate_13", "axis": -1}, "inbound_nodes": [[["batch_normalization_15", 0, 0, {}], ["batch_normalization_16", 0, 0, {}], ["batch_normalization_17", 0, 0, {}], ["batch_normalization_18", 0, 0, {}]]], "name": "concatenate_13"}, {"class_name": "Conv2D", "config": {"kernel_constraint": null, "kernel_initializer": {"class_name": "VarianceScaling", "config": {"distribution": "uniform", "scale": 1.0, "seed": null, "mode": "fan_avg"}}, "name": "conv2d_19", "bias_regularizer": null, "bias_constraint": null, "activation": "relu", "trainable": true, "data_format": "channels_last", "padding": "same", "strides": [1, 1], "dilation_rate": [1, 1], "kernel_regularizer": {"class_name": "L1L2", "config": {"l2": 0.00019999999494757503, "l1": 0.0}}, "filters": 12, "bias_initializer": {"class_name": "Zeros", "config": {}}, "use_bias": true, "activity_regularizer": null, "kernel_size": [3, 3]}, "inbound_nodes": [[["concatenate_13", 0, 0, {}]]], "name": "conv2d_19"}, {"class_name": "BatchNormalization", "config": {"beta_constraint": null, "gamma_initializer": {"class_name": "Ones", "config": {}}, "moving_mean_initializer": {"class_name": "Zeros", "config": {}}, "name": "batch_normalization_19", "epsilon": 0.001, "trainable": true, "moving_variance_initializer": {"class_name": "Ones", "config": {}}, "beta_initializer": {"class_name": "Zeros", "config": {}}, "scale": true, "axis": -1, "gamma_constraint": null, "gamma_regularizer": null, "beta_regularizer": null, "momentum": 0.99, "center": true}, "inbound_nodes": [[["conv2d_19", 0, 0, {}]]], "name": "batch_normalization_19"}, {"class_name": "Concatenate", "config": {"trainable": true, "name": "concatenate_14", "axis": -1}, "inbound_nodes": [[["batch_normalization_15", 0, 0, {}], ["batch_normalization_16", 0, 0, {}], ["batch_normalization_17", 0, 0, {}], ["batch_normalization_18", 0, 0, {}], ["batch_normalization_19", 0, 0, {}]]], "name": "concatenate_14"}, {"class_name": "Conv2D", "config": {"kernel_constraint": null, "kernel_initializer": {"class_name": "VarianceScaling", "config": {"distribution": "uniform", "scale": 1.0, "seed": null, "mode": "fan_avg"}}, "name": "conv2d_20", "bias_regularizer": null, "bias_constraint": null, "activation": "relu", "trainable": true, "data_format": "channels_last", "padding": "same", "strides": [1, 1], "dilation_rate": [1, 1], "kernel_regularizer": {"class_name": "L1L2", "config": {"l2": 0.00019999999494757503, "l1": 0.0}}, "filters": 12, "bias_initializer": {"class_name": "Zeros", "config": {}}, "use_bias": true, "activity_regularizer": null, "kernel_size": [3, 3]}, "inbound_nodes": [[["concatenate_14", 0, 0, {}]]], "name": "conv2d_20"}, {"class_name": "BatchNormalization", "config": {"beta_constraint": null, "gamma_initializer": {"class_name": "Ones", "config": {}}, "moving_mean_initializer": {"class_name": "Zeros", "config": {}}, "name": "batch_normalization_20", "epsilon": 0.001, "trainable": true, "moving_variance_initializer": {"class_name": "Ones", "config": {}}, "beta_initializer": {"class_name": "Zeros", "config": {}}, "scale": true, "axis": -1, "gamma_constraint": null, "gamma_regularizer": null, "beta_regularizer": null, "momentum": 0.99, "center": true}, "inbound_nodes": [[["conv2d_20", 0, 0, {}]]], "name": "batch_normalization_20"}, {"class_name": "Concatenate", "config": {"trainable": true, "name": "concatenate_15", "axis": -1}, "inbound_nodes": [[["batch_normalization_15", 0, 0, {}], ["batch_normalization_16", 0, 0, {}], ["batch_normalization_17", 0, 0, {}], ["batch_normalization_18", 0, 0, {}], ["batch_normalization_19", 0, 0, {}], ["batch_normalization_20", 0, 0, {}]]], "name": "concatenate_15"}, {"class_name": "Conv2D", "config": {"kernel_constraint": null, "kernel_initializer": {"class_name": "VarianceScaling", "config": {"distribution": "uniform", "scale": 1.0, "seed": null, "mode": "fan_avg"}}, "name": "conv2d_21", "bias_regularizer": null, "bias_constraint": null, "activation": "relu", "trainable": true, "data_format": "channels_last", "padding": "same", "strides": [1, 1], "dilation_rate": [1, 1], "kernel_regularizer": {"class_name": "L1L2", "config": {"l2": 0.00019999999494757503, "l1": 0.0}}, "filters": 12, "bias_initializer": {"class_name": "Zeros", "config": {}}, "use_bias": true, "activity_regularizer": null, "kernel_size": [3, 3]}, "inbound_nodes": [[["concatenate_15", 0, 0, {}]]], "name": "conv2d_21"}, {"class_name": "BatchNormalization", "config": {"beta_constraint": null, "gamma_initializer": {"class_name": "Ones", "config": {}}, "moving_mean_initializer": {"class_name": "Zeros", "config": {}}, "name": "batch_normalization_21", "epsilon": 0.001, "trainable": true, "moving_variance_initializer": {"class_name": "Ones", "config": {}}, "beta_initializer": {"class_name": "Zeros", "config": {}}, "scale": true, "axis": -1, "gamma_constraint": null, "gamma_regularizer": null, "beta_regularizer": null, "momentum": 0.99, "center": true}, "inbound_nodes": [[["conv2d_21", 0, 0, {}]]], "name": "batch_normalization_21"}, {"class_name": "Concatenate", "config": {"trainable": true, "name": "concatenate_16", "axis": -1}, "inbound_nodes": [[["batch_normalization_15", 0, 0, {}], ["batch_normalization_16", 0, 0, {}], ["batch_normalization_17", 0, 0, {}], ["batch_normalization_18", 0, 0, {}], ["batch_normalization_19", 0, 0, {}], ["batch_normalization_20", 0, 0, {}], ["batch_normalization_21", 0, 0, {}]]], "name": "concatenate_16"}, {"class_name": "Conv2D", "config": {"kernel_constraint": null, "kernel_initializer": {"class_name": "VarianceScaling", "config": {"distribution": "uniform", "scale": 1.0, "seed": null, "mode": "fan_avg"}}, "name": "conv2d_22", "bias_regularizer": null, "bias_constraint": null, "activation": "relu", "trainable": true, "data_format": "channels_last", "padding": "same", "strides": [1, 1], "dilation_rate": [1, 1], "kernel_regularizer": {"class_name": "L1L2", "config": {"l2": 0.00019999999494757503, "l1": 0.0}}, "filters": 12, "bias_initializer": {"class_name": "Zeros", "config": {}}, "use_bias": true, "activity_regularizer": null, "kernel_size": [3, 3]}, "inbound_nodes": [[["concatenate_16", 0, 0, {}]]], "name": "conv2d_22"}, {"class_name": "BatchNormalization", "config": {"beta_constraint": null, "gamma_initializer": {"class_name": "Ones", "config": {}}, "moving_mean_initializer": {"class_name": "Zeros", "config": {}}, "name": "batch_normalization_22", "epsilon": 0.001, "trainable": true, "moving_variance_initializer": {"class_name": "Ones", "config": {}}, "beta_initializer": {"class_name": "Zeros", "config": {}}, "scale": true, "axis": -1, "gamma_constraint": null, "gamma_regularizer": null, "beta_regularizer": null, "momentum": 0.99, "center": true}, "inbound_nodes": [[["conv2d_22", 0, 0, {}]]], "name": "batch_normalization_22"}, {"class_name": "Concatenate", "config": {"trainable": true, "name": "concatenate_17", "axis": -1}, "inbound_nodes": [[["batch_normalization_15", 0, 0, {}], ["batch_normalization_16", 0, 0, {}], ["batch_normalization_17", 0, 0, {}], ["batch_normalization_18", 0, 0, {}], ["batch_normalization_19", 0, 0, {}], ["batch_normalization_20", 0, 0, {}], ["batch_normalization_21", 0, 0, {}], ["batch_normalization_22", 0, 0, {}]]], "name": "concatenate_17"}, {"class_name": "Conv2D", "config": {"kernel_constraint": null, "kernel_initializer": {"class_name": "VarianceScaling", "config": {"distribution": "uniform", "scale": 1.0, "seed": null, "mode": "fan_avg"}}, "name": "conv2d_23", "bias_regularizer": null, "bias_constraint": null, "activation": "relu", "trainable": true, "data_format": "channels_last", "padding": "same", "strides": [1, 1], "dilation_rate": [1, 1], "kernel_regularizer": {"class_name": "L1L2", "config": {"l2": 0.00019999999494757503, "l1": 0.0}}, "filters": 12, "bias_initializer": {"class_name": "Zeros", "config": {}}, "use_bias": true, "activity_regularizer": null, "kernel_size": [3, 3]}, "inbound_nodes": [[["concatenate_17", 0, 0, {}]]], "name": "conv2d_23"}, {"class_name": "BatchNormalization", "config": {"beta_constraint": null, "gamma_initializer": {"class_name": "Ones", "config": {}}, "moving_mean_initializer": {"class_name": "Zeros", "config": {}}, "name": "batch_normalization_23", "epsilon": 0.001, "trainable": true, "moving_variance_initializer": {"class_name": "Ones", "config": {}}, "beta_initializer": {"class_name": "Zeros", "config": {}}, "scale": true, "axis": -1, "gamma_constraint": null, "gamma_regularizer": null, "beta_regularizer": null, "momentum": 0.99, "center": true}, "inbound_nodes": [[["conv2d_23", 0, 0, {}]]], "name": "batch_normalization_23"}, {"class_name": "Concatenate", "config": {"trainable": true, "name": "concatenate_18", "axis": -1}, "inbound_nodes": [[["batch_normalization_15", 0, 0, {}], ["batch_normalization_16", 0, 0, {}], ["batch_normalization_17", 0, 0, {}], ["batch_normalization_18", 0, 0, {}], ["batch_normalization_19", 0, 0, {}], ["batch_normalization_20", 0, 0, {}], ["batch_normalization_21", 0, 0, {}], ["batch_normalization_22", 0, 0, {}], ["batch_normalization_23", 0, 0, {}]]], "name": "concatenate_18"}, {"class_name": "Conv2D", "config": {"kernel_constraint": null, "kernel_initializer": {"class_name": "VarianceScaling", "config": {"distribution": "uniform", "scale": 1.0, "seed": null, "mode": "fan_avg"}}, "name": "conv2d_24", "bias_regularizer": null, "bias_constraint": null, "activation": "relu", "trainable": true, "data_format": "channels_last", "padding": "same", "strides": [1, 1], "dilation_rate": [1, 1], "kernel_regularizer": {"class_name": "L1L2", "config": {"l2": 0.00019999999494757503, "l1": 0.0}}, "filters": 12, "bias_initializer": {"class_name": "Zeros", "config": {}}, "use_bias": true, "activity_regularizer": null, "kernel_size": [3, 3]}, "inbound_nodes": [[["concatenate_18", 0, 0, {}]]], "name": "conv2d_24"}, {"class_name": "BatchNormalization", "config": {"beta_constraint": null, "gamma_initializer": {"class_name": "Ones", "config": {}}, "moving_mean_initializer": {"class_name": "Zeros", "config": {}}, "name": "batch_normalization_24", "epsilon": 0.001, "trainable": true, "moving_variance_initializer": {"class_name": "Ones", "config": {}}, "beta_initializer": {"class_name": "Zeros", "config": {}}, "scale": true, "axis": -1, "gamma_constraint": null, "gamma_regularizer": null, "beta_regularizer": null, "momentum": 0.99, "center": true}, "inbound_nodes": [[["conv2d_24", 0, 0, {}]]], "name": "batch_normalization_24"}, {"class_name": "Concatenate", "config": {"trainable": true, "name": "concatenate_19", "axis": -1}, "inbound_nodes": [[["batch_normalization_15", 0, 0, {}], ["batch_normalization_16", 0, 0, {}], ["batch_normalization_17", 0, 0, {}], ["batch_normalization_18", 0, 0, {}], ["batch_normalization_19", 0, 0, {}], ["batch_normalization_20", 0, 0, {}], ["batch_normalization_21", 0, 0, {}], ["batch_normalization_22", 0, 0, {}], ["batch_normalization_23", 0, 0, {}], ["batch_normalization_24", 0, 0, {}]]], "name": "concatenate_19"}, {"class_name": "Conv2D", "config": {"kernel_constraint": null, "kernel_initializer": {"class_name": "VarianceScaling", "config": {"distribution": "uniform", "scale": 1.0, "seed": null, "mode": "fan_avg"}}, "name": "conv2d_25", "bias_regularizer": null, "bias_constraint": null, "activation": "relu", "trainable": true, "data_format": "channels_last", "padding": "same", "strides": [1, 1], "dilation_rate": [1, 1], "kernel_regularizer": {"class_name": "L1L2", "config": {"l2": 0.00019999999494757503, "l1": 0.0}}, "filters": 12, "bias_initializer": {"class_name": "Zeros", "config": {}}, "use_bias": true, "activity_regularizer": null, "kernel_size": [3, 3]}, "inbound_nodes": [[["concatenate_19", 0, 0, {}]]], "name": "conv2d_25"}, {"class_name": "BatchNormalization", "config": {"beta_constraint": null, "gamma_initializer": {"class_name": "Ones", "config": {}}, "moving_mean_initializer": {"class_name": "Zeros", "config": {}}, "name": "batch_normalization_25", "epsilon": 0.001, "trainable": true, "moving_variance_initializer": {"class_name": "Ones", "config": {}}, "beta_initializer": {"class_name": "Zeros", "config": {}}, "scale": true, "axis": -1, "gamma_constraint": null, "gamma_regularizer": null, "beta_regularizer": null, "momentum": 0.99, "center": true}, "inbound_nodes": [[["conv2d_25", 0, 0, {}]]], "name": "batch_normalization_25"}, {"class_name": "Concatenate", "config": {"trainable": true, "name": "concatenate_20", "axis": -1}, "inbound_nodes": [[["batch_normalization_15", 0, 0, {}], ["batch_normalization_16", 0, 0, {}], ["batch_normalization_17", 0, 0, {}], ["batch_normalization_18", 0, 0, {}], ["batch_normalization_19", 0, 0, {}], ["batch_normalization_20", 0, 0, {}], ["batch_normalization_21", 0, 0, {}], ["batch_normalization_22", 0, 0, {}], ["batch_normalization_23", 0, 0, {}], ["batch_normalization_24", 0, 0, {}], ["batch_normalization_25", 0, 0, {}]]], "name": "concatenate_20"}, {"class_name": "Conv2D", "config": {"kernel_constraint": null, "kernel_initializer": {"class_name": "VarianceScaling", "config": {"distribution": "uniform", "scale": 1.0, "seed": null, "mode": "fan_avg"}}, "name": "conv2d_26", "bias_regularizer": null, "bias_constraint": null, "activation": "relu", "trainable": true, "data_format": "channels_last", "padding": "same", "strides": [1, 1], "dilation_rate": [1, 1], "kernel_regularizer": {"class_name": "L1L2", "config": {"l2": 0.00019999999494757503, "l1": 0.0}}, "filters": 12, "bias_initializer": {"class_name": "Zeros", "config": {}}, "use_bias": true, "activity_regularizer": null, "kernel_size": [3, 3]}, "inbound_nodes": [[["concatenate_20", 0, 0, {}]]], "name": "conv2d_26"}, {"class_name": "BatchNormalization", "config": {"beta_constraint": null, "gamma_initializer": {"class_name": "Ones", "config": {}}, "moving_mean_initializer": {"class_name": "Zeros", "config": {}}, "name": "batch_normalization_26", "epsilon": 0.001, "trainable": true, "moving_variance_initializer": {"class_name": "Ones", "config": {}}, "beta_initializer": {"class_name": "Zeros", "config": {}}, "scale": true, "axis": -1, "gamma_constraint": null, "gamma_regularizer": null, "beta_regularizer": null, "momentum": 0.99, "center": true}, "inbound_nodes": [[["conv2d_26", 0, 0, {}]]], "name": "batch_normalization_26"}, {"class_name": "Concatenate", "config": {"trainable": true, "name": "concatenate_21", "axis": -1}, "inbound_nodes": [[["batch_normalization_15", 0, 0, {}], ["batch_normalization_16", 0, 0, {}], ["batch_normalization_17", 0, 0, {}], ["batch_normalization_18", 0, 0, {}], ["batch_normalization_19", 0, 0, {}], ["batch_normalization_20", 0, 0, {}], ["batch_normalization_21", 0, 0, {}], ["batch_normalization_22", 0, 0, {}], ["batch_normalization_23", 0, 0, {}], ["batch_normalization_24", 0, 0, {}], ["batch_normalization_25", 0, 0, {}], ["batch_normalization_26", 0, 0, {}]]], "name": "concatenate_21"}, {"class_name": "Conv2D", "config": {"kernel_constraint": null, "kernel_initializer": {"class_name": "VarianceScaling", "config": {"distribution": "uniform", "scale": 1.0, "seed": null, "mode": "fan_avg"}}, "name": "conv2d_27", "bias_regularizer": null, "bias_constraint": null, "activation": "relu", "trainable": true, "data_format": "channels_last", "padding": "same", "strides": [1, 1], "dilation_rate": [1, 1], "kernel_regularizer": {"class_name": "L1L2", "config": {"l2": 0.00019999999494757503, "l1": 0.0}}, "filters": 12, "bias_initializer": {"class_name": "Zeros", "config": {}}, "use_bias": true, "activity_regularizer": null, "kernel_size": [3, 3]}, "inbound_nodes": [[["concatenate_21", 0, 0, {}]]], "name": "conv2d_27"}, {"class_name": "BatchNormalization", "config": {"beta_constraint": null, "gamma_initializer": {"class_name": "Ones", "config": {}}, "moving_mean_initializer": {"class_name": "Zeros", "config": {}}, "name": "batch_normalization_27", "epsilon": 0.001, "trainable": true, "moving_variance_initializer": {"class_name": "Ones", "config": {}}, "beta_initializer": {"class_name": "Zeros", "config": {}}, "scale": true, "axis": -1, "gamma_constraint": null, "gamma_regularizer": null, "beta_regularizer": null, "momentum": 0.99, "center": true}, "inbound_nodes": [[["conv2d_27", 0, 0, {}]]], "name": "batch_normalization_27"}, {"class_name": "Concatenate", "config": {"trainable": true, "name": "concatenate_22", "axis": -1}, "inbound_nodes": [[["batch_normalization_15", 0, 0, {}], ["batch_normalization_16", 0, 0, {}], ["batch_normalization_17", 0, 0, {}], ["batch_normalization_18", 0, 0, {}], ["batch_normalization_19", 0, 0, {}], ["batch_normalization_20", 0, 0, {}], ["batch_normalization_21", 0, 0, {}], ["batch_normalization_22", 0, 0, {}], ["batch_normalization_23", 0, 0, {}], ["batch_normalization_24", 0, 0, {}], ["batch_normalization_25", 0, 0, {}], ["batch_normalization_26", 0, 0, {}], ["batch_normalization_27", 0, 0, {}]]], "name": "concatenate_22"}, {"class_name": "Conv2D", "config": {"kernel_constraint": null, "kernel_initializer": {"class_name": "VarianceScaling", "config": {"distribution": "uniform", "scale": 1.0, "seed": null, "mode": "fan_avg"}}, "name": "conv2d_28", "bias_regularizer": null, "bias_constraint": null, "activation": "relu", "trainable": true, "data_format": "channels_last", "padding": "same", "strides": [1, 1], "dilation_rate": [1, 1], "kernel_regularizer": {"class_name": "L1L2", "config": {"l2": 0.00019999999494757503, "l1": 0.0}}, "filters": 12, "bias_initializer": {"class_name": "Zeros", "config": {}}, "use_bias": true, "activity_regularizer": null, "kernel_size": [3, 3]}, "inbound_nodes": [[["concatenate_22", 0, 0, {}]]], "name": "conv2d_28"}, {"class_name": "BatchNormalization", "config": {"beta_constraint": null, "gamma_initializer": {"class_name": "Ones", "config": {}}, "moving_mean_initializer": {"class_name": "Zeros", "config": {}}, "name": "batch_normalization_28", "epsilon": 0.001, "trainable": true, "moving_variance_initializer": {"class_name": "Ones", "config": {}}, "beta_initializer": {"class_name": "Zeros", "config": {}}, "scale": true, "axis": -1, "gamma_constraint": null, "gamma_regularizer": null, "beta_regularizer": null, "momentum": 0.99, "center": true}, "inbound_nodes": [[["conv2d_28", 0, 0, {}]]], "name": "batch_normalization_28"}, {"class_name": "Concatenate", "config": {"trainable": true, "name": "concatenate_23", "axis": -1}, "inbound_nodes": [[["batch_normalization_15", 0, 0, {}], ["batch_normalization_16", 0, 0, {}], ["batch_normalization_17", 0, 0, {}], ["batch_normalization_18", 0, 0, {}], ["batch_normalization_19", 0, 0, {}], ["batch_normalization_20", 0, 0, {}], ["batch_normalization_21", 0, 0, {}], ["batch_normalization_22", 0, 0, {}], ["batch_normalization_23", 0, 0, {}], ["batch_normalization_24", 0, 0, {}], ["batch_normalization_25", 0, 0, {}], ["batch_normalization_26", 0, 0, {}], ["batch_normalization_27", 0, 0, {}], ["batch_normalization_28", 0, 0, {}]]], "name": "concatenate_23"}, {"class_name": "Conv2D", "config": {"kernel_constraint": null, "kernel_initializer": {"class_name": "VarianceScaling", "config": {"distribution": "uniform", "scale": 1.0, "seed": null, "mode": "fan_avg"}}, "name": "conv2d_29", "bias_regularizer": null, "bias_constraint": null, "activation": "relu", "trainable": true, "data_format": "channels_last", "padding": "same", "strides": [1, 1], "dilation_rate": [1, 1], "kernel_regularizer": {"class_name": "L1L2", "config": {"l2": 0.00019999999494757503, "l1": 0.0}}, "filters": 12, "bias_initializer": {"class_name": "Zeros", "config": {}}, "use_bias": true, "activity_regularizer": null, "kernel_size": [3, 3]}, "inbound_nodes": [[["concatenate_23", 0, 0, {}]]], "name": "conv2d_29"}, {"class_name": "BatchNormalization", "config": {"beta_constraint": null, "gamma_initializer": {"class_name": "Ones", "config": {}}, "moving_mean_initializer": {"class_name": "Zeros", "config": {}}, "name": "batch_normalization_29", "epsilon": 0.001, "trainable": true, "moving_variance_initializer": {"class_name": "Ones", "config": {}}, "beta_initializer": {"class_name": "Zeros", "config": {}}, "scale": true, "axis": -1, "gamma_constraint": null, "gamma_regularizer": null, "beta_regularizer": null, "momentum": 0.99, "center": true}, "inbound_nodes": [[["conv2d_29", 0, 0, {}]]], "name": "batch_normalization_29"}, {"class_name": "Concatenate", "config": {"trainable": true, "name": "concatenate_24", "axis": -1}, "inbound_nodes": [[["batch_normalization_15", 0, 0, {}], ["batch_normalization_16", 0, 0, {}], ["batch_normalization_17", 0, 0, {}], ["batch_normalization_18", 0, 0, {}], ["batch_normalization_19", 0, 0, {}], ["batch_normalization_20", 0, 0, {}], ["batch_normalization_21", 0, 0, {}], ["batch_normalization_22", 0, 0, {}], ["batch_normalization_23", 0, 0, {}], ["batch_normalization_24", 0, 0, {}], ["batch_normalization_25", 0, 0, {}], ["batch_normalization_26", 0, 0, {}], ["batch_normalization_27", 0, 0, {}], ["batch_normalization_28", 0, 0, {}], ["batch_normalization_29", 0, 0, {}]]], "name": "concatenate_24"}, {"class_name": "Conv2D", "config": {"kernel_constraint": null, "kernel_initializer": {"class_name": "VarianceScaling", "config": {"distribution": "uniform", "scale": 1.0, "seed": null, "mode": "fan_avg"}}, "name": "conv2d_30", "bias_regularizer": null, "bias_constraint": null, "activation": "relu", "trainable": true, "data_format": "channels_last", "padding": "same", "strides": [1, 1], "dilation_rate": [1, 1], "kernel_regularizer": {"class_name": "L1L2", "config": {"l2": 0.00019999999494757503, "l1": 0.0}}, "filters": 12, "bias_initializer": {"class_name": "Zeros", "config": {}}, "use_bias": true, "activity_regularizer": null, "kernel_size": [3, 3]}, "inbound_nodes": [[["concatenate_24", 0, 0, {}]]], "name": "conv2d_30"}, {"class_name": "BatchNormalization", "config": {"beta_constraint": null, "gamma_initializer": {"class_name": "Ones", "config": {}}, "moving_mean_initializer": {"class_name": "Zeros", "config": {}}, "name": "batch_normalization_30", "epsilon": 0.001, "trainable": true, "moving_variance_initializer": {"class_name": "Ones", "config": {}}, "beta_initializer": {"class_name": "Zeros", "config": {}}, "scale": true, "axis": -1, "gamma_constraint": null, "gamma_regularizer": null, "beta_regularizer": null, "momentum": 0.99, "center": true}, "inbound_nodes": [[["conv2d_30", 0, 0, {}]]], "name": "batch_normalization_30"}, {"class_name": "Concatenate", "config": {"trainable": true, "name": "concatenate_25", "axis": -1}, "inbound_nodes": [[["batch_normalization_15", 0, 0, {}], ["batch_normalization_16", 0, 0, {}], ["batch_normalization_17", 0, 0, {}], ["batch_normalization_18", 0, 0, {}], ["batch_normalization_19", 0, 0, {}], ["batch_normalization_20", 0, 0, {}], ["batch_normalization_21", 0, 0, {}], ["batch_normalization_22", 0, 0, {}], ["batch_normalization_23", 0, 0, {}], ["batch_normalization_24", 0, 0, {}], ["batch_normalization_25", 0, 0, {}], ["batch_normalization_26", 0, 0, {}], ["batch_normalization_27", 0, 0, {}], ["batch_normalization_28", 0, 0, {}], ["batch_normalization_29", 0, 0, {}], ["batch_normalization_30", 0, 0, {}]]], "name": "concatenate_25"}, {"class_name": "Conv2D", "config": {"kernel_constraint": null, "kernel_initializer": {"class_name": "VarianceScaling", "config": {"distribution": "uniform", "scale": 1.0, "seed": null, "mode": "fan_avg"}}, "name": "conv2d_31", "bias_regularizer": null, "bias_constraint": null, "activation": "relu", "trainable": true, "data_format": "channels_last", "padding": "same", "strides": [1, 1], "dilation_rate": [1, 1], "kernel_regularizer": {"class_name": "L1L2", "config": {"l2": 0.00019999999494757503, "l1": 0.0}}, "filters": 12, "bias_initializer": {"class_name": "Zeros", "config": {}}, "use_bias": true, "activity_regularizer": null, "kernel_size": [3, 3]}, "inbound_nodes": [[["concatenate_25", 0, 0, {}]]], "name": "conv2d_31"}, {"class_name": "BatchNormalization", "config": {"beta_constraint": null, "gamma_initializer": {"class_name": "Ones", "config": {}}, "moving_mean_initializer": {"class_name": "Zeros", "config": {}}, "name": "batch_normalization_31", "epsilon": 0.001, "trainable": true, "moving_variance_initializer": {"class_name": "Ones", "config": {}}, "beta_initializer": {"class_name": "Zeros", "config": {}}, "scale": true, "axis": -1, "gamma_constraint": null, "gamma_regularizer": null, "beta_regularizer": null, "momentum": 0.99, "center": true}, "inbound_nodes": [[["conv2d_31", 0, 0, {}]]], "name": "batch_normalization_31"}, {"class_name": "Concatenate", "config": {"trainable": true, "name": "concatenate_26", "axis": -1}, "inbound_nodes": [[["batch_normalization_15", 0, 0, {}], ["batch_normalization_16", 0, 0, {}], ["batch_normalization_17", 0, 0, {}], ["batch_normalization_18", 0, 0, {}], ["batch_normalization_19", 0, 0, {}], ["batch_normalization_20", 0, 0, {}], ["batch_normalization_21", 0, 0, {}], ["batch_normalization_22", 0, 0, {}], ["batch_normalization_23", 0, 0, {}], ["batch_normalization_24", 0, 0, {}], ["batch_normalization_25", 0, 0, {}], ["batch_normalization_26", 0, 0, {}], ["batch_normalization_27", 0, 0, {}], ["batch_normalization_28", 0, 0, {}], ["batch_normalization_29", 0, 0, {}], ["batch_normalization_30", 0, 0, {}], ["batch_normalization_31", 0, 0, {}]]], "name": "concatenate_26"}, {"class_name": "Conv2D", "config": {"kernel_constraint": null, "kernel_initializer": {"class_name": "VarianceScaling", "config": {"distribution": "uniform", "scale": 1.0, "seed": null, "mode": "fan_avg"}}, "name": "conv2d_32", "bias_regularizer": null, "bias_constraint": null, "activation": "relu", "trainable": true, "data_format": "channels_last", "padding": "same", "strides": [1, 1], "dilation_rate": [1, 1], "kernel_regularizer": {"class_name": "L1L2", "config": {"l2": 0.00019999999494757503, "l1": 0.0}}, "filters": 12, "bias_initializer": {"class_name": "Zeros", "config": {}}, "use_bias": true, "activity_regularizer": null, "kernel_size": [3, 3]}, "inbound_nodes": [[["concatenate_26", 0, 0, {}]]], "name": "conv2d_32"}, {"class_name": "BatchNormalization", "config": {"beta_constraint": null, "gamma_initializer": {"class_name": "Ones", "config": {}}, "moving_mean_initializer": {"class_name": "Zeros", "config": {}}, "name": "batch_normalization_32", "epsilon": 0.001, "trainable": true, "moving_variance_initializer": {"class_name": "Ones", "config": {}}, "beta_initializer": {"class_name": "Zeros", "config": {}}, "scale": true, "axis": -1, "gamma_constraint": null, "gamma_regularizer": null, "beta_regularizer": null, "momentum": 0.99, "center": true}, "inbound_nodes": [[["conv2d_32", 0, 0, {}]]], "name": "batch_normalization_32"}, {"class_name": "Concatenate", "config": {"trainable": true, "name": "concatenate_27", "axis": -1}, "inbound_nodes": [[["batch_normalization_15", 0, 0, {}], ["batch_normalization_16", 0, 0, {}], ["batch_normalization_17", 0, 0, {}], ["batch_normalization_18", 0, 0, {}], ["batch_normalization_19", 0, 0, {}], ["batch_normalization_20", 0, 0, {}], ["batch_normalization_21", 0, 0, {}], ["batch_normalization_22", 0, 0, {}], ["batch_normalization_23", 0, 0, {}], ["batch_normalization_24", 0, 0, {}], ["batch_normalization_25", 0, 0, {}], ["batch_normalization_26", 0, 0, {}], ["batch_normalization_27", 0, 0, {}], ["batch_normalization_28", 0, 0, {}], ["batch_normalization_29", 0, 0, {}], ["batch_normalization_30", 0, 0, {}], ["batch_normalization_31", 0, 0, {}], ["batch_normalization_32", 0, 0, {}]]], "name": "concatenate_27"}, {"class_name": "Conv2D", "config": {"kernel_constraint": null, "kernel_initializer": {"class_name": "VarianceScaling", "config": {"distribution": "uniform", "scale": 1.0, "seed": null, "mode": "fan_avg"}}, "name": "conv2d_33", "bias_regularizer": null, "bias_constraint": null, "activation": "relu", "trainable": true, "data_format": "channels_last", "padding": "same", "strides": [1, 1], "dilation_rate": [1, 1], "kernel_regularizer": {"class_name": "L1L2", "config": {"l2": 0.00019999999494757503, "l1": 0.0}}, "filters": 12, "bias_initializer": {"class_name": "Zeros", "config": {}}, "use_bias": true, "activity_regularizer": null, "kernel_size": [3, 3]}, "inbound_nodes": [[["concatenate_27", 0, 0, {}]]], "name": "conv2d_33"}, {"class_name": "BatchNormalization", "config": {"beta_constraint": null, "gamma_initializer": {"class_name": "Ones", "config": {}}, "moving_mean_initializer": {"class_name": "Zeros", "config": {}}, "name": "batch_normalization_33", "epsilon": 0.001, "trainable": true, "moving_variance_initializer": {"class_name": "Ones", "config": {}}, "beta_initializer": {"class_name": "Zeros", "config": {}}, "scale": true, "axis": -1, "gamma_constraint": null, "gamma_regularizer": null, "beta_regularizer": null, "momentum": 0.99, "center": true}, "inbound_nodes": [[["conv2d_33", 0, 0, {}]]], "name": "batch_normalization_33"}, {"class_name": "Concatenate", "config": {"trainable": true, "name": "concatenate_28", "axis": -1}, "inbound_nodes": [[["batch_normalization_15", 0, 0, {}], ["batch_normalization_16", 0, 0, {}], ["batch_normalization_17", 0, 0, {}], ["batch_normalization_18", 0, 0, {}], ["batch_normalization_19", 0, 0, {}], ["batch_normalization_20", 0, 0, {}], ["batch_normalization_21", 0, 0, {}], ["batch_normalization_22", 0, 0, {}], ["batch_normalization_23", 0, 0, {}], ["batch_normalization_24", 0, 0, {}], ["batch_normalization_25", 0, 0, {}], ["batch_normalization_26", 0, 0, {}], ["batch_normalization_27", 0, 0, {}], ["batch_normalization_28", 0, 0, {}], ["batch_normalization_29", 0, 0, {}], ["batch_normalization_30", 0, 0, {}], ["batch_normalization_31", 0, 0, {}], ["batch_normalization_32", 0, 0, {}], ["batch_normalization_33", 0, 0, {}]]], "name": "concatenate_28"}, {"class_name": "Conv2D", "config": {"kernel_constraint": null, "kernel_initializer": {"class_name": "VarianceScaling", "config": {"distribution": "uniform", "scale": 1.0, "seed": null, "mode": "fan_avg"}}, "name": "conv2d_34", "bias_regularizer": null, "bias_constraint": null, "activation": "relu", "trainable": true, "data_format": "channels_last", "padding": "same", "strides": [1, 1], "dilation_rate": [1, 1], "kernel_regularizer": {"class_name": "L1L2", "config": {"l2": 0.00019999999494757503, "l1": 0.0}}, "filters": 12, "bias_initializer": {"class_name": "Zeros", "config": {}}, "use_bias": true, "activity_regularizer": null, "kernel_size": [3, 3]}, "inbound_nodes": [[["concatenate_28", 0, 0, {}]]], "name": "conv2d_34"}, {"class_name": "BatchNormalization", "config": {"beta_constraint": null, "gamma_initializer": {"class_name": "Ones", "config": {}}, "moving_mean_initializer": {"class_name": "Zeros", "config": {}}, "name": "batch_normalization_34", "epsilon": 0.001, "trainable": true, "moving_variance_initializer": {"class_name": "Ones", "config": {}}, "beta_initializer": {"class_name": "Zeros", "config": {}}, "scale": true, "axis": -1, "gamma_constraint": null, "gamma_regularizer": null, "beta_regularizer": null, "momentum": 0.99, "center": true}, "inbound_nodes": [[["conv2d_34", 0, 0, {}]]], "name": "batch_normalization_34"}, {"class_name": "Concatenate", "config": {"trainable": true, "name": "concatenate_29", "axis": -1}, "inbound_nodes": [[["batch_normalization_15", 0, 0, {}], ["batch_normalization_16", 0, 0, {}], ["batch_normalization_17", 0, 0, {}], ["batch_normalization_18", 0, 0, {}], ["batch_normalization_19", 0, 0, {}], ["batch_normalization_20", 0, 0, {}], ["batch_normalization_21", 0, 0, {}], ["batch_normalization_22", 0, 0, {}], ["batch_normalization_23", 0, 0, {}], ["batch_normalization_24", 0, 0, {}], ["batch_normalization_25", 0, 0, {}], ["batch_normalization_26", 0, 0, {}], ["batch_normalization_27", 0, 0, {}], ["batch_normalization_28", 0, 0, {}], ["batch_normalization_29", 0, 0, {}], ["batch_normalization_30", 0, 0, {}], ["batch_normalization_31", 0, 0, {}], ["batch_normalization_32", 0, 0, {}], ["batch_normalization_33", 0, 0, {}], ["batch_normalization_34", 0, 0, {}]]], "name": "concatenate_29"}, {"class_name": "Conv2D", "config": {"kernel_constraint": null, "kernel_initializer": {"class_name": "VarianceScaling", "config": {"distribution": "uniform", "scale": 1.0, "seed": null, "mode": "fan_avg"}}, "name": "conv2d_35", "bias_regularizer": null, "bias_constraint": null, "activation": "relu", "trainable": true, "data_format": "channels_last", "padding": "same", "strides": [1, 1], "dilation_rate": [1, 1], "kernel_regularizer": {"class_name": "L1L2", "config": {"l2": 0.00019999999494757503, "l1": 0.0}}, "filters": 128, "bias_initializer": {"class_name": "Zeros", "config": {}}, "use_bias": true, "activity_regularizer": null, "kernel_size": [3, 3]}, "inbound_nodes": [[["concatenate_29", 0, 0, {}]]], "name": "conv2d_35"}, {"class_name": "BatchNormalization", "config": {"beta_constraint": null, "gamma_initializer": {"class_name": "Ones", "config": {}}, "moving_mean_initializer": {"class_name": "Zeros", "config": {}}, "name": "batch_normalization_35", "epsilon": 0.001, "trainable": true, "moving_variance_initializer": {"class_name": "Ones", "config": {}}, "beta_initializer": {"class_name": "Zeros", "config": {}}, "scale": true, "axis": -1, "gamma_constraint": null, "gamma_regularizer": null, "beta_regularizer": null, "momentum": 0.99, "center": true}, "inbound_nodes": [[["conv2d_35", 0, 0, {}]]], "name": "batch_normalization_35"}, {"class_name": "MaxPooling2D", "config": {"name": "max_pooling2d_3", "trainable": true, "data_format": "channels_last", "pool_size": [2, 2], "padding": "valid", "strides": [2, 2]}, "inbound_nodes": [[["batch_normalization_35", 0, 0, {}]]], "name": "max_pooling2d_3"}, {"class_name": "Dropout", "config": {"rate": 0.3, "noise_shape": null, "trainable": true, "seed": null, "name": "dropout_3"}, "inbound_nodes": [[["max_pooling2d_3", 0, 0, {}]]], "name": "dropout_3"}, {"class_name": "Conv2D", "config": {"kernel_constraint": null, "kernel_initializer": {"class_name": "VarianceScaling", "config": {"distribution": "uniform", "scale": 1.0, "seed": null, "mode": "fan_avg"}}, "name": "conv2d_36", "bias_regularizer": null, "bias_constraint": null, "activation": "relu", "trainable": true, "data_format": "channels_last", "padding": "same", "strides": [1, 1], "dilation_rate": [1, 1], "kernel_regularizer": {"class_name": "L1L2", "config": {"l2": 0.00019999999494757503, "l1": 0.0}}, "filters": 12, "bias_initializer": {"class_name": "Zeros", "config": {}}, "use_bias": true, "activity_regularizer": null, "kernel_size": [3, 3]}, "inbound_nodes": [[["dropout_3", 0, 0, {}]]], "name": "conv2d_36"}, {"class_name": "BatchNormalization", "config": {"beta_constraint": null, "gamma_initializer": {"class_name": "Ones", "config": {}}, "moving_mean_initializer": {"class_name": "Zeros", "config": {}}, "name": "batch_normalization_36", "epsilon": 0.001, "trainable": true, "moving_variance_initializer": {"class_name": "Ones", "config": {}}, "beta_initializer": {"class_name": "Zeros", "config": {}}, "scale": true, "axis": -1, "gamma_constraint": null, "gamma_regularizer": null, "beta_regularizer": null, "momentum": 0.99, "center": true}, "inbound_nodes": [[["conv2d_36", 0, 0, {}]]], "name": "batch_normalization_36"}, {"class_name": "Conv2D", "config": {"kernel_constraint": null, "kernel_initializer": {"class_name": "VarianceScaling", "config": {"distribution": "uniform", "scale": 1.0, "seed": null, "mode": "fan_avg"}}, "name": "conv2d_37", "bias_regularizer": null, "bias_constraint": null, "activation": "relu", "trainable": true, "data_format": "channels_last", "padding": "same", "strides": [1, 1], "dilation_rate": [1, 1], "kernel_regularizer": {"class_name": "L1L2", "config": {"l2": 0.00019999999494757503, "l1": 0.0}}, "filters": 12, "bias_initializer": {"class_name": "Zeros", "config": {}}, "use_bias": true, "activity_regularizer": null, "kernel_size": [3, 3]}, "inbound_nodes": [[["batch_normalization_36", 0, 0, {}]]], "name": "conv2d_37"}, {"class_name": "BatchNormalization", "config": {"beta_constraint": null, "gamma_initializer": {"class_name": "Ones", "config": {}}, "moving_mean_initializer": {"class_name": "Zeros", "config": {}}, "name": "batch_normalization_37", "epsilon": 0.001, "trainable": true, "moving_variance_initializer": {"class_name": "Ones", "config": {}}, "beta_initializer": {"class_name": "Zeros", "config": {}}, "scale": true, "axis": -1, "gamma_constraint": null, "gamma_regularizer": null, "beta_regularizer": null, "momentum": 0.99, "center": true}, "inbound_nodes": [[["conv2d_37", 0, 0, {}]]], "name": "batch_normalization_37"}, {"class_name": "Concatenate", "config": {"trainable": true, "name": "concatenate_30", "axis": -1}, "inbound_nodes": [[["batch_normalization_36", 0, 0, {}], ["batch_normalization_37", 0, 0, {}]]], "name": "concatenate_30"}, {"class_name": "Conv2D", "config": {"kernel_constraint": null, "kernel_initializer": {"class_name": "VarianceScaling", "config": {"distribution": "uniform", "scale": 1.0, "seed": null, "mode": "fan_avg"}}, "name": "conv2d_38", "bias_regularizer": null, "bias_constraint": null, "activation": "relu", "trainable": true, "data_format": "channels_last", "padding": "same", "strides": [1, 1], "dilation_rate": [1, 1], "kernel_regularizer": {"class_name": "L1L2", "config": {"l2": 0.00019999999494757503, "l1": 0.0}}, "filters": 12, "bias_initializer": {"class_name": "Zeros", "config": {}}, "use_bias": true, "activity_regularizer": null, "kernel_size": [3, 3]}, "inbound_nodes": [[["concatenate_30", 0, 0, {}]]], "name": "conv2d_38"}, {"class_name": "BatchNormalization", "config": {"beta_constraint": null, "gamma_initializer": {"class_name": "Ones", "config": {}}, "moving_mean_initializer": {"class_name": "Zeros", "config": {}}, "name": "batch_normalization_38", "epsilon": 0.001, "trainable": true, "moving_variance_initializer": {"class_name": "Ones", "config": {}}, "beta_initializer": {"class_name": "Zeros", "config": {}}, "scale": true, "axis": -1, "gamma_constraint": null, "gamma_regularizer": null, "beta_regularizer": null, "momentum": 0.99, "center": true}, "inbound_nodes": [[["conv2d_38", 0, 0, {}]]], "name": "batch_normalization_38"}, {"class_name": "Concatenate", "config": {"trainable": true, "name": "concatenate_31", "axis": -1}, "inbound_nodes": [[["batch_normalization_36", 0, 0, {}], ["batch_normalization_37", 0, 0, {}], ["batch_normalization_38", 0, 0, {}]]], "name": "concatenate_31"}, {"class_name": "Conv2D", "config": {"kernel_constraint": null, "kernel_initializer": {"class_name": "VarianceScaling", "config": {"distribution": "uniform", "scale": 1.0, "seed": null, "mode": "fan_avg"}}, "name": "conv2d_39", "bias_regularizer": null, "bias_constraint": null, "activation": "relu", "trainable": true, "data_format": "channels_last", "padding": "same", "strides": [1, 1], "dilation_rate": [1, 1], "kernel_regularizer": {"class_name": "L1L2", "config": {"l2": 0.00019999999494757503, "l1": 0.0}}, "filters": 12, "bias_initializer": {"class_name": "Zeros", "config": {}}, "use_bias": true, "activity_regularizer": null, "kernel_size": [3, 3]}, "inbound_nodes": [[["concatenate_31", 0, 0, {}]]], "name": "conv2d_39"}, {"class_name": "BatchNormalization", "config": {"beta_constraint": null, "gamma_initializer": {"class_name": "Ones", "config": {}}, "moving_mean_initializer": {"class_name": "Zeros", "config": {}}, "name": "batch_normalization_39", "epsilon": 0.001, "trainable": true, "moving_variance_initializer": {"class_name": "Ones", "config": {}}, "beta_initializer": {"class_name": "Zeros", "config": {}}, "scale": true, "axis": -1, "gamma_constraint": null, "gamma_regularizer": null, "beta_regularizer": null, "momentum": 0.99, "center": true}, "inbound_nodes": [[["conv2d_39", 0, 0, {}]]], "name": "batch_normalization_39"}, {"class_name": "Concatenate", "config": {"trainable": true, "name": "concatenate_32", "axis": -1}, "inbound_nodes": [[["batch_normalization_36", 0, 0, {}], ["batch_normalization_37", 0, 0, {}], ["batch_normalization_38", 0, 0, {}], ["batch_normalization_39", 0, 0, {}]]], "name": "concatenate_32"}, {"class_name": "Conv2D", "config": {"kernel_constraint": null, "kernel_initializer": {"class_name": "VarianceScaling", "config": {"distribution": "uniform", "scale": 1.0, "seed": null, "mode": "fan_avg"}}, "name": "conv2d_40", "bias_regularizer": null, "bias_constraint": null, "activation": "relu", "trainable": true, "data_format": "channels_last", "padding": "same", "strides": [1, 1], "dilation_rate": [1, 1], "kernel_regularizer": {"class_name": "L1L2", "config": {"l2": 0.00019999999494757503, "l1": 0.0}}, "filters": 12, "bias_initializer": {"class_name": "Zeros", "config": {}}, "use_bias": true, "activity_regularizer": null, "kernel_size": [3, 3]}, "inbound_nodes": [[["concatenate_32", 0, 0, {}]]], "name": "conv2d_40"}, {"class_name": "BatchNormalization", "config": {"beta_constraint": null, "gamma_initializer": {"class_name": "Ones", "config": {}}, "moving_mean_initializer": {"class_name": "Zeros", "config": {}}, "name": "batch_normalization_40", "epsilon": 0.001, "trainable": true, "moving_variance_initializer": {"class_name": "Ones", "config": {}}, "beta_initializer": {"class_name": "Zeros", "config": {}}, "scale": true, "axis": -1, "gamma_constraint": null, "gamma_regularizer": null, "beta_regularizer": null, "momentum": 0.99, "center": true}, "inbound_nodes": [[["conv2d_40", 0, 0, {}]]], "name": "batch_normalization_40"}, {"class_name": "Concatenate", "config": {"trainable": true, "name": "concatenate_33", "axis": -1}, "inbound_nodes": [[["batch_normalization_36", 0, 0, {}], ["batch_normalization_37", 0, 0, {}], ["batch_normalization_38", 0, 0, {}], ["batch_normalization_39", 0, 0, {}], ["batch_normalization_40", 0, 0, {}]]], "name": "concatenate_33"}, {"class_name": "Conv2D", "config": {"kernel_constraint": null, "kernel_initializer": {"class_name": "VarianceScaling", "config": {"distribution": "uniform", "scale": 1.0, "seed": null, "mode": "fan_avg"}}, "name": "conv2d_41", "bias_regularizer": null, "bias_constraint": null, "activation": "relu", "trainable": true, "data_format": "channels_last", "padding": "same", "strides": [1, 1], "dilation_rate": [1, 1], "kernel_regularizer": {"class_name": "L1L2", "config": {"l2": 0.00019999999494757503, "l1": 0.0}}, "filters": 12, "bias_initializer": {"class_name": "Zeros", "config": {}}, "use_bias": true, "activity_regularizer": null, "kernel_size": [3, 3]}, "inbound_nodes": [[["concatenate_33", 0, 0, {}]]], "name": "conv2d_41"}, {"class_name": "BatchNormalization", "config": {"beta_constraint": null, "gamma_initializer": {"class_name": "Ones", "config": {}}, "moving_mean_initializer": {"class_name": "Zeros", "config": {}}, "name": "batch_normalization_41", "epsilon": 0.001, "trainable": true, "moving_variance_initializer": {"class_name": "Ones", "config": {}}, "beta_initializer": {"class_name": "Zeros", "config": {}}, "scale": true, "axis": -1, "gamma_constraint": null, "gamma_regularizer": null, "beta_regularizer": null, "momentum": 0.99, "center": true}, "inbound_nodes": [[["conv2d_41", 0, 0, {}]]], "name": "batch_normalization_41"}, {"class_name": "Concatenate", "config": {"trainable": true, "name": "concatenate_34", "axis": -1}, "inbound_nodes": [[["batch_normalization_36", 0, 0, {}], ["batch_normalization_37", 0, 0, {}], ["batch_normalization_38", 0, 0, {}], ["batch_normalization_39", 0, 0, {}], ["batch_normalization_40", 0, 0, {}], ["batch_normalization_41", 0, 0, {}]]], "name": "concatenate_34"}, {"class_name": "Conv2D", "config": {"kernel_constraint": null, "kernel_initializer": {"class_name": "VarianceScaling", "config": {"distribution": "uniform", "scale": 1.0, "seed": null, "mode": "fan_avg"}}, "name": "conv2d_42", "bias_regularizer": null, "bias_constraint": null, "activation": "relu", "trainable": true, "data_format": "channels_last", "padding": "same", "strides": [1, 1], "dilation_rate": [1, 1], "kernel_regularizer": {"class_name": "L1L2", "config": {"l2": 0.00019999999494757503, "l1": 0.0}}, "filters": 12, "bias_initializer": {"class_name": "Zeros", "config": {}}, "use_bias": true, "activity_regularizer": null, "kernel_size": [3, 3]}, "inbound_nodes": [[["concatenate_34", 0, 0, {}]]], "name": "conv2d_42"}, {"class_name": "BatchNormalization", "config": {"beta_constraint": null, "gamma_initializer": {"class_name": "Ones", "config": {}}, "moving_mean_initializer": {"class_name": "Zeros", "config": {}}, "name": "batch_normalization_42", "epsilon": 0.001, "trainable": true, "moving_variance_initializer": {"class_name": "Ones", "config": {}}, "beta_initializer": {"class_name": "Zeros", "config": {}}, "scale": true, "axis": -1, "gamma_constraint": null, "gamma_regularizer": null, "beta_regularizer": null, "momentum": 0.99, "center": true}, "inbound_nodes": [[["conv2d_42", 0, 0, {}]]], "name": "batch_normalization_42"}, {"class_name": "Concatenate", "config": {"trainable": true, "name": "concatenate_35", "axis": -1}, "inbound_nodes": [[["batch_normalization_36", 0, 0, {}], ["batch_normalization_37", 0, 0, {}], ["batch_normalization_38", 0, 0, {}], ["batch_normalization_39", 0, 0, {}], ["batch_normalization_40", 0, 0, {}], ["batch_normalization_41", 0, 0, {}], ["batch_normalization_42", 0, 0, {}]]], "name": "concatenate_35"}, {"class_name": "Conv2D", "config": {"kernel_constraint": null, "kernel_initializer": {"class_name": "VarianceScaling", "config": {"distribution": "uniform", "scale": 1.0, "seed": null, "mode": "fan_avg"}}, "name": "conv2d_43", "bias_regularizer": null, "bias_constraint": null, "activation": "relu", "trainable": true, "data_format": "channels_last", "padding": "same", "strides": [1, 1], "dilation_rate": [1, 1], "kernel_regularizer": {"class_name": "L1L2", "config": {"l2": 0.00019999999494757503, "l1": 0.0}}, "filters": 12, "bias_initializer": {"class_name": "Zeros", "config": {}}, "use_bias": true, "activity_regularizer": null, "kernel_size": [3, 3]}, "inbound_nodes": [[["concatenate_35", 0, 0, {}]]], "name": "conv2d_43"}, {"class_name": "BatchNormalization", "config": {"beta_constraint": null, "gamma_initializer": {"class_name": "Ones", "config": {}}, "moving_mean_initializer": {"class_name": "Zeros", "config": {}}, "name": "batch_normalization_43", "epsilon": 0.001, "trainable": true, "moving_variance_initializer": {"class_name": "Ones", "config": {}}, "beta_initializer": {"class_name": "Zeros", "config": {}}, "scale": true, "axis": -1, "gamma_constraint": null, "gamma_regularizer": null, "beta_regularizer": null, "momentum": 0.99, "center": true}, "inbound_nodes": [[["conv2d_43", 0, 0, {}]]], "name": "batch_normalization_43"}, {"class_name": "Concatenate", "config": {"trainable": true, "name": "concatenate_36", "axis": -1}, "inbound_nodes": [[["batch_normalization_36", 0, 0, {}], ["batch_normalization_37", 0, 0, {}], ["batch_normalization_38", 0, 0, {}], ["batch_normalization_39", 0, 0, {}], ["batch_normalization_40", 0, 0, {}], ["batch_normalization_41", 0, 0, {}], ["batch_normalization_42", 0, 0, {}], ["batch_normalization_43", 0, 0, {}]]], "name": "concatenate_36"}, {"class_name": "Conv2D", "config": {"kernel_constraint": null, "kernel_initializer": {"class_name": "VarianceScaling", "config": {"distribution": "uniform", "scale": 1.0, "seed": null, "mode": "fan_avg"}}, "name": "conv2d_44", "bias_regularizer": null, "bias_constraint": null, "activation": "relu", "trainable": true, "data_format": "channels_last", "padding": "same", "strides": [1, 1], "dilation_rate": [1, 1], "kernel_regularizer": {"class_name": "L1L2", "config": {"l2": 0.00019999999494757503, "l1": 0.0}}, "filters": 12, "bias_initializer": {"class_name": "Zeros", "config": {}}, "use_bias": true, "activity_regularizer": null, "kernel_size": [3, 3]}, "inbound_nodes": [[["concatenate_36", 0, 0, {}]]], "name": "conv2d_44"}, {"class_name": "BatchNormalization", "config": {"beta_constraint": null, "gamma_initializer": {"class_name": "Ones", "config": {}}, "moving_mean_initializer": {"class_name": "Zeros", "config": {}}, "name": "batch_normalization_44", "epsilon": 0.001, "trainable": true, "moving_variance_initializer": {"class_name": "Ones", "config": {}}, "beta_initializer": {"class_name": "Zeros", "config": {}}, "scale": true, "axis": -1, "gamma_constraint": null, "gamma_regularizer": null, "beta_regularizer": null, "momentum": 0.99, "center": true}, "inbound_nodes": [[["conv2d_44", 0, 0, {}]]], "name": "batch_normalization_44"}, {"class_name": "Concatenate", "config": {"trainable": true, "name": "concatenate_37", "axis": -1}, "inbound_nodes": [[["batch_normalization_36", 0, 0, {}], ["batch_normalization_37", 0, 0, {}], ["batch_normalization_38", 0, 0, {}], ["batch_normalization_39", 0, 0, {}], ["batch_normalization_40", 0, 0, {}], ["batch_normalization_41", 0, 0, {}], ["batch_normalization_42", 0, 0, {}], ["batch_normalization_43", 0, 0, {}], ["batch_normalization_44", 0, 0, {}]]], "name": "concatenate_37"}, {"class_name": "Conv2D", "config": {"kernel_constraint": null, "kernel_initializer": {"class_name": "VarianceScaling", "config": {"distribution": "uniform", "scale": 1.0, "seed": null, "mode": "fan_avg"}}, "name": "conv2d_45", "bias_regularizer": null, "bias_constraint": null, "activation": "relu", "trainable": true, "data_format": "channels_last", "padding": "same", "strides": [1, 1], "dilation_rate": [1, 1], "kernel_regularizer": {"class_name": "L1L2", "config": {"l2": 0.00019999999494757503, "l1": 0.0}}, "filters": 12, "bias_initializer": {"class_name": "Zeros", "config": {}}, "use_bias": true, "activity_regularizer": null, "kernel_size": [3, 3]}, "inbound_nodes": [[["concatenate_37", 0, 0, {}]]], "name": "conv2d_45"}, {"class_name": "BatchNormalization", "config": {"beta_constraint": null, "gamma_initializer": {"class_name": "Ones", "config": {}}, "moving_mean_initializer": {"class_name": "Zeros", "config": {}}, "name": "batch_normalization_45", "epsilon": 0.001, "trainable": true, "moving_variance_initializer": {"class_name": "Ones", "config": {}}, "beta_initializer": {"class_name": "Zeros", "config": {}}, "scale": true, "axis": -1, "gamma_constraint": null, "gamma_regularizer": null, "beta_regularizer": null, "momentum": 0.99, "center": true}, "inbound_nodes": [[["conv2d_45", 0, 0, {}]]], "name": "batch_normalization_45"}, {"class_name": "Concatenate", "config": {"trainable": true, "name": "concatenate_38", "axis": -1}, "inbound_nodes": [[["batch_normalization_36", 0, 0, {}], ["batch_normalization_37", 0, 0, {}], ["batch_normalization_38", 0, 0, {}], ["batch_normalization_39", 0, 0, {}], ["batch_normalization_40", 0, 0, {}], ["batch_normalization_41", 0, 0, {}], ["batch_normalization_42", 0, 0, {}], ["batch_normalization_43", 0, 0, {}], ["batch_normalization_44", 0, 0, {}], ["batch_normalization_45", 0, 0, {}]]], "name": "concatenate_38"}, {"class_name": "Conv2D", "config": {"kernel_constraint": null, "kernel_initializer": {"class_name": "VarianceScaling", "config": {"distribution": "uniform", "scale": 1.0, "seed": null, "mode": "fan_avg"}}, "name": "conv2d_46", "bias_regularizer": null, "bias_constraint": null, "activation": "relu", "trainable": true, "data_format": "channels_last", "padding": "same", "strides": [1, 1], "dilation_rate": [1, 1], "kernel_regularizer": {"class_name": "L1L2", "config": {"l2": 0.00019999999494757503, "l1": 0.0}}, "filters": 12, "bias_initializer": {"class_name": "Zeros", "config": {}}, "use_bias": true, "activity_regularizer": null, "kernel_size": [3, 3]}, "inbound_nodes": [[["concatenate_38", 0, 0, {}]]], "name": "conv2d_46"}, {"class_name": "BatchNormalization", "config": {"beta_constraint": null, "gamma_initializer": {"class_name": "Ones", "config": {}}, "moving_mean_initializer": {"class_name": "Zeros", "config": {}}, "name": "batch_normalization_46", "epsilon": 0.001, "trainable": true, "moving_variance_initializer": {"class_name": "Ones", "config": {}}, "beta_initializer": {"class_name": "Zeros", "config": {}}, "scale": true, "axis": -1, "gamma_constraint": null, "gamma_regularizer": null, "beta_regularizer": null, "momentum": 0.99, "center": true}, "inbound_nodes": [[["conv2d_46", 0, 0, {}]]], "name": "batch_normalization_46"}, {"class_name": "Concatenate", "config": {"trainable": true, "name": "concatenate_39", "axis": -1}, "inbound_nodes": [[["batch_normalization_36", 0, 0, {}], ["batch_normalization_37", 0, 0, {}], ["batch_normalization_38", 0, 0, {}], ["batch_normalization_39", 0, 0, {}], ["batch_normalization_40", 0, 0, {}], ["batch_normalization_41", 0, 0, {}], ["batch_normalization_42", 0, 0, {}], ["batch_normalization_43", 0, 0, {}], ["batch_normalization_44", 0, 0, {}], ["batch_normalization_45", 0, 0, {}], ["batch_normalization_46", 0, 0, {}]]], "name": "concatenate_39"}, {"class_name": "Conv2D", "config": {"kernel_constraint": null, "kernel_initializer": {"class_name": "VarianceScaling", "config": {"distribution": "uniform", "scale": 1.0, "seed": null, "mode": "fan_avg"}}, "name": "conv2d_47", "bias_regularizer": null, "bias_constraint": null, "activation": "relu", "trainable": true, "data_format": "channels_last", "padding": "same", "strides": [1, 1], "dilation_rate": [1, 1], "kernel_regularizer": {"class_name": "L1L2", "config": {"l2": 0.00019999999494757503, "l1": 0.0}}, "filters": 12, "bias_initializer": {"class_name": "Zeros", "config": {}}, "use_bias": true, "activity_regularizer": null, "kernel_size": [3, 3]}, "inbound_nodes": [[["concatenate_39", 0, 0, {}]]], "name": "conv2d_47"}, {"class_name": "BatchNormalization", "config": {"beta_constraint": null, "gamma_initializer": {"class_name": "Ones", "config": {}}, "moving_mean_initializer": {"class_name": "Zeros", "config": {}}, "name": "batch_normalization_47", "epsilon": 0.001, "trainable": true, "moving_variance_initializer": {"class_name": "Ones", "config": {}}, "beta_initializer": {"class_name": "Zeros", "config": {}}, "scale": true, "axis": -1, "gamma_constraint": null, "gamma_regularizer": null, "beta_regularizer": null, "momentum": 0.99, "center": true}, "inbound_nodes": [[["conv2d_47", 0, 0, {}]]], "name": "batch_normalization_47"}, {"class_name": "Concatenate", "config": {"trainable": true, "name": "concatenate_40", "axis": -1}, "inbound_nodes": [[["batch_normalization_36", 0, 0, {}], ["batch_normalization_37", 0, 0, {}], ["batch_normalization_38", 0, 0, {}], ["batch_normalization_39", 0, 0, {}], ["batch_normalization_40", 0, 0, {}], ["batch_normalization_41", 0, 0, {}], ["batch_normalization_42", 0, 0, {}], ["batch_normalization_43", 0, 0, {}], ["batch_normalization_44", 0, 0, {}], ["batch_normalization_45", 0, 0, {}], ["batch_normalization_46", 0, 0, {}], ["batch_normalization_47", 0, 0, {}]]], "name": "concatenate_40"}, {"class_name": "Conv2D", "config": {"kernel_constraint": null, "kernel_initializer": {"class_name": "VarianceScaling", "config": {"distribution": "uniform", "scale": 1.0, "seed": null, "mode": "fan_avg"}}, "name": "conv2d_48", "bias_regularizer": null, "bias_constraint": null, "activation": "relu", "trainable": true, "data_format": "channels_last", "padding": "same", "strides": [1, 1], "dilation_rate": [1, 1], "kernel_regularizer": {"class_name": "L1L2", "config": {"l2": 0.00019999999494757503, "l1": 0.0}}, "filters": 12, "bias_initializer": {"class_name": "Zeros", "config": {}}, "use_bias": true, "activity_regularizer": null, "kernel_size": [3, 3]}, "inbound_nodes": [[["concatenate_40", 0, 0, {}]]], "name": "conv2d_48"}, {"class_name": "BatchNormalization", "config": {"beta_constraint": null, "gamma_initializer": {"class_name": "Ones", "config": {}}, "moving_mean_initializer": {"class_name": "Zeros", "config": {}}, "name": "batch_normalization_48", "epsilon": 0.001, "trainable": true, "moving_variance_initializer": {"class_name": "Ones", "config": {}}, "beta_initializer": {"class_name": "Zeros", "config": {}}, "scale": true, "axis": -1, "gamma_constraint": null, "gamma_regularizer": null, "beta_regularizer": null, "momentum": 0.99, "center": true}, "inbound_nodes": [[["conv2d_48", 0, 0, {}]]], "name": "batch_normalization_48"}, {"class_name": "Concatenate", "config": {"trainable": true, "name": "concatenate_41", "axis": -1}, "inbound_nodes": [[["batch_normalization_36", 0, 0, {}], ["batch_normalization_37", 0, 0, {}], ["batch_normalization_38", 0, 0, {}], ["batch_normalization_39", 0, 0, {}], ["batch_normalization_40", 0, 0, {}], ["batch_normalization_41", 0, 0, {}], ["batch_normalization_42", 0, 0, {}], ["batch_normalization_43", 0, 0, {}], ["batch_normalization_44", 0, 0, {}], ["batch_normalization_45", 0, 0, {}], ["batch_normalization_46", 0, 0, {}], ["batch_normalization_47", 0, 0, {}], ["batch_normalization_48", 0, 0, {}]]], "name": "concatenate_41"}, {"class_name": "Conv2D", "config": {"kernel_constraint": null, "kernel_initializer": {"class_name": "VarianceScaling", "config": {"distribution": "uniform", "scale": 1.0, "seed": null, "mode": "fan_avg"}}, "name": "conv2d_49", "bias_regularizer": null, "bias_constraint": null, "activation": "relu", "trainable": true, "data_format": "channels_last", "padding": "same", "strides": [1, 1], "dilation_rate": [1, 1], "kernel_regularizer": {"class_name": "L1L2", "config": {"l2": 0.00019999999494757503, "l1": 0.0}}, "filters": 12, "bias_initializer": {"class_name": "Zeros", "config": {}}, "use_bias": true, "activity_regularizer": null, "kernel_size": [3, 3]}, "inbound_nodes": [[["concatenate_41", 0, 0, {}]]], "name": "conv2d_49"}, {"class_name": "BatchNormalization", "config": {"beta_constraint": null, "gamma_initializer": {"class_name": "Ones", "config": {}}, "moving_mean_initializer": {"class_name": "Zeros", "config": {}}, "name": "batch_normalization_49", "epsilon": 0.001, "trainable": true, "moving_variance_initializer": {"class_name": "Ones", "config": {}}, "beta_initializer": {"class_name": "Zeros", "config": {}}, "scale": true, "axis": -1, "gamma_constraint": null, "gamma_regularizer": null, "beta_regularizer": null, "momentum": 0.99, "center": true}, "inbound_nodes": [[["conv2d_49", 0, 0, {}]]], "name": "batch_normalization_49"}, {"class_name": "Concatenate", "config": {"trainable": true, "name": "concatenate_42", "axis": -1}, "inbound_nodes": [[["batch_normalization_36", 0, 0, {}], ["batch_normalization_37", 0, 0, {}], ["batch_normalization_38", 0, 0, {}], ["batch_normalization_39", 0, 0, {}], ["batch_normalization_40", 0, 0, {}], ["batch_normalization_41", 0, 0, {}], ["batch_normalization_42", 0, 0, {}], ["batch_normalization_43", 0, 0, {}], ["batch_normalization_44", 0, 0, {}], ["batch_normalization_45", 0, 0, {}], ["batch_normalization_46", 0, 0, {}], ["batch_normalization_47", 0, 0, {}], ["batch_normalization_48", 0, 0, {}], ["batch_normalization_49", 0, 0, {}]]], "name": "concatenate_42"}, {"class_name": "Conv2D", "config": {"kernel_constraint": null, "kernel_initializer": {"class_name": "VarianceScaling", "config": {"distribution": "uniform", "scale": 1.0, "seed": null, "mode": "fan_avg"}}, "name": "conv2d_50", "bias_regularizer": null, "bias_constraint": null, "activation": "relu", "trainable": true, "data_format": "channels_last", "padding": "same", "strides": [1, 1], "dilation_rate": [1, 1], "kernel_regularizer": {"class_name": "L1L2", "config": {"l2": 0.00019999999494757503, "l1": 0.0}}, "filters": 12, "bias_initializer": {"class_name": "Zeros", "config": {}}, "use_bias": true, "activity_regularizer": null, "kernel_size": [3, 3]}, "inbound_nodes": [[["concatenate_42", 0, 0, {}]]], "name": "conv2d_50"}, {"class_name": "BatchNormalization", "config": {"beta_constraint": null, "gamma_initializer": {"class_name": "Ones", "config": {}}, "moving_mean_initializer": {"class_name": "Zeros", "config": {}}, "name": "batch_normalization_50", "epsilon": 0.001, "trainable": true, "moving_variance_initializer": {"class_name": "Ones", "config": {}}, "beta_initializer": {"class_name": "Zeros", "config": {}}, "scale": true, "axis": -1, "gamma_constraint": null, "gamma_regularizer": null, "beta_regularizer": null, "momentum": 0.99, "center": true}, "inbound_nodes": [[["conv2d_50", 0, 0, {}]]], "name": "batch_normalization_50"}, {"class_name": "Concatenate", "config": {"trainable": true, "name": "concatenate_43", "axis": -1}, "inbound_nodes": [[["batch_normalization_36", 0, 0, {}], ["batch_normalization_37", 0, 0, {}], ["batch_normalization_38", 0, 0, {}], ["batch_normalization_39", 0, 0, {}], ["batch_normalization_40", 0, 0, {}], ["batch_normalization_41", 0, 0, {}], ["batch_normalization_42", 0, 0, {}], ["batch_normalization_43", 0, 0, {}], ["batch_normalization_44", 0, 0, {}], ["batch_normalization_45", 0, 0, {}], ["batch_normalization_46", 0, 0, {}], ["batch_normalization_47", 0, 0, {}], ["batch_normalization_48", 0, 0, {}], ["batch_normalization_49", 0, 0, {}], ["batch_normalization_50", 0, 0, {}]]], "name": "concatenate_43"}, {"class_name": "Conv2D", "config": {"kernel_constraint": null, "kernel_initializer": {"class_name": "VarianceScaling", "config": {"distribution": "uniform", "scale": 1.0, "seed": null, "mode": "fan_avg"}}, "name": "conv2d_51", "bias_regularizer": null, "bias_constraint": null, "activation": "relu", "trainable": true, "data_format": "channels_last", "padding": "same", "strides": [1, 1], "dilation_rate": [1, 1], "kernel_regularizer": {"class_name": "L1L2", "config": {"l2": 0.00019999999494757503, "l1": 0.0}}, "filters": 12, "bias_initializer": {"class_name": "Zeros", "config": {}}, "use_bias": true, "activity_regularizer": null, "kernel_size": [3, 3]}, "inbound_nodes": [[["concatenate_43", 0, 0, {}]]], "name": "conv2d_51"}, {"class_name": "BatchNormalization", "config": {"beta_constraint": null, "gamma_initializer": {"class_name": "Ones", "config": {}}, "moving_mean_initializer": {"class_name": "Zeros", "config": {}}, "name": "batch_normalization_51", "epsilon": 0.001, "trainable": true, "moving_variance_initializer": {"class_name": "Ones", "config": {}}, "beta_initializer": {"class_name": "Zeros", "config": {}}, "scale": true, "axis": -1, "gamma_constraint": null, "gamma_regularizer": null, "beta_regularizer": null, "momentum": 0.99, "center": true}, "inbound_nodes": [[["conv2d_51", 0, 0, {}]]], "name": "batch_normalization_51"}, {"class_name": "Concatenate", "config": {"trainable": true, "name": "concatenate_44", "axis": -1}, "inbound_nodes": [[["batch_normalization_36", 0, 0, {}], ["batch_normalization_37", 0, 0, {}], ["batch_normalization_38", 0, 0, {}], ["batch_normalization_39", 0, 0, {}], ["batch_normalization_40", 0, 0, {}], ["batch_normalization_41", 0, 0, {}], ["batch_normalization_42", 0, 0, {}], ["batch_normalization_43", 0, 0, {}], ["batch_normalization_44", 0, 0, {}], ["batch_normalization_45", 0, 0, {}], ["batch_normalization_46", 0, 0, {}], ["batch_normalization_47", 0, 0, {}], ["batch_normalization_48", 0, 0, {}], ["batch_normalization_49", 0, 0, {}], ["batch_normalization_50", 0, 0, {}], ["batch_normalization_51", 0, 0, {}]]], "name": "concatenate_44"}, {"class_name": "Conv2D", "config": {"kernel_constraint": null, "kernel_initializer": {"class_name": "VarianceScaling", "config": {"distribution": "uniform", "scale": 1.0, "seed": null, "mode": "fan_avg"}}, "name": "conv2d_52", "bias_regularizer": null, "bias_constraint": null, "activation": "relu", "trainable": true, "data_format": "channels_last", "padding": "same", "strides": [1, 1], "dilation_rate": [1, 1], "kernel_regularizer": {"class_name": "L1L2", "config": {"l2": 0.00019999999494757503, "l1": 0.0}}, "filters": 12, "bias_initializer": {"class_name": "Zeros", "config": {}}, "use_bias": true, "activity_regularizer": null, "kernel_size": [3, 3]}, "inbound_nodes": [[["concatenate_44", 0, 0, {}]]], "name": "conv2d_52"}, {"class_name": "BatchNormalization", "config": {"beta_constraint": null, "gamma_initializer": {"class_name": "Ones", "config": {}}, "moving_mean_initializer": {"class_name": "Zeros", "config": {}}, "name": "batch_normalization_52", "epsilon": 0.001, "trainable": true, "moving_variance_initializer": {"class_name": "Ones", "config": {}}, "beta_initializer": {"class_name": "Zeros", "config": {}}, "scale": true, "axis": -1, "gamma_constraint": null, "gamma_regularizer": null, "beta_regularizer": null, "momentum": 0.99, "center": true}, "inbound_nodes": [[["conv2d_52", 0, 0, {}]]], "name": "batch_normalization_52"}, {"class_name": "Concatenate", "config": {"trainable": true, "name": "concatenate_45", "axis": -1}, "inbound_nodes": [[["batch_normalization_36", 0, 0, {}], ["batch_normalization_37", 0, 0, {}], ["batch_normalization_38", 0, 0, {}], ["batch_normalization_39", 0, 0, {}], ["batch_normalization_40", 0, 0, {}], ["batch_normalization_41", 0, 0, {}], ["batch_normalization_42", 0, 0, {}], ["batch_normalization_43", 0, 0, {}], ["batch_normalization_44", 0, 0, {}], ["batch_normalization_45", 0, 0, {}], ["batch_normalization_46", 0, 0, {}], ["batch_normalization_47", 0, 0, {}], ["batch_normalization_48", 0, 0, {}], ["batch_normalization_49", 0, 0, {}], ["batch_normalization_50", 0, 0, {}], ["batch_normalization_51", 0, 0, {}], ["batch_normalization_52", 0, 0, {}]]], "name": "concatenate_45"}, {"class_name": "Conv2D", "config": {"kernel_constraint": null, "kernel_initializer": {"class_name": "VarianceScaling", "config": {"distribution": "uniform", "scale": 1.0, "seed": null, "mode": "fan_avg"}}, "name": "conv2d_53", "bias_regularizer": null, "bias_constraint": null, "activation": "relu", "trainable": true, "data_format": "channels_last", "padding": "same", "strides": [1, 1], "dilation_rate": [1, 1], "kernel_regularizer": {"class_name": "L1L2", "config": {"l2": 0.00019999999494757503, "l1": 0.0}}, "filters": 12, "bias_initializer": {"class_name": "Zeros", "config": {}}, "use_bias": true, "activity_regularizer": null, "kernel_size": [3, 3]}, "inbound_nodes": [[["concatenate_45", 0, 0, {}]]], "name": "conv2d_53"}, {"class_name": "BatchNormalization", "config": {"beta_constraint": null, "gamma_initializer": {"class_name": "Ones", "config": {}}, "moving_mean_initializer": {"class_name": "Zeros", "config": {}}, "name": "batch_normalization_53", "epsilon": 0.001, "trainable": true, "moving_variance_initializer": {"class_name": "Ones", "config": {}}, "beta_initializer": {"class_name": "Zeros", "config": {}}, "scale": true, "axis": -1, "gamma_constraint": null, "gamma_regularizer": null, "beta_regularizer": null, "momentum": 0.99, "center": true}, "inbound_nodes": [[["conv2d_53", 0, 0, {}]]], "name": "batch_normalization_53"}, {"class_name": "Concatenate", "config": {"trainable": true, "name": "concatenate_46", "axis": -1}, "inbound_nodes": [[["batch_normalization_36", 0, 0, {}], ["batch_normalization_37", 0, 0, {}], ["batch_normalization_38", 0, 0, {}], ["batch_normalization_39", 0, 0, {}], ["batch_normalization_40", 0, 0, {}], ["batch_normalization_41", 0, 0, {}], ["batch_normalization_42", 0, 0, {}], ["batch_normalization_43", 0, 0, {}], ["batch_normalization_44", 0, 0, {}], ["batch_normalization_45", 0, 0, {}], ["batch_normalization_46", 0, 0, {}], ["batch_normalization_47", 0, 0, {}], ["batch_normalization_48", 0, 0, {}], ["batch_normalization_49", 0, 0, {}], ["batch_normalization_50", 0, 0, {}], ["batch_normalization_51", 0, 0, {}], ["batch_normalization_52", 0, 0, {}], ["batch_normalization_53", 0, 0, {}]]], "name": "concatenate_46"}, {"class_name": "Conv2D", "config": {"kernel_constraint": null, "kernel_initializer": {"class_name": "VarianceScaling", "config": {"distribution": "uniform", "scale": 1.0, "seed": null, "mode": "fan_avg"}}, "name": "conv2d_54", "bias_regularizer": null, "bias_constraint": null, "activation": "relu", "trainable": true, "data_format": "channels_last", "padding": "same", "strides": [1, 1], "dilation_rate": [1, 1], "kernel_regularizer": {"class_name": "L1L2", "config": {"l2": 0.00019999999494757503, "l1": 0.0}}, "filters": 12, "bias_initializer": {"class_name": "Zeros", "config": {}}, "use_bias": true, "activity_regularizer": null, "kernel_size": [3, 3]}, "inbound_nodes": [[["concatenate_46", 0, 0, {}]]], "name": "conv2d_54"}, {"class_name": "BatchNormalization", "config": {"beta_constraint": null, "gamma_initializer": {"class_name": "Ones", "config": {}}, "moving_mean_initializer": {"class_name": "Zeros", "config": {}}, "name": "batch_normalization_54", "epsilon": 0.001, "trainable": true, "moving_variance_initializer": {"class_name": "Ones", "config": {}}, "beta_initializer": {"class_name": "Zeros", "config": {}}, "scale": true, "axis": -1, "gamma_constraint": null, "gamma_regularizer": null, "beta_regularizer": null, "momentum": 0.99, "center": true}, "inbound_nodes": [[["conv2d_54", 0, 0, {}]]], "name": "batch_normalization_54"}, {"class_name": "Concatenate", "config": {"trainable": true, "name": "concatenate_47", "axis": -1}, "inbound_nodes": [[["batch_normalization_36", 0, 0, {}], ["batch_normalization_37", 0, 0, {}], ["batch_normalization_38", 0, 0, {}], ["batch_normalization_39", 0, 0, {}], ["batch_normalization_40", 0, 0, {}], ["batch_normalization_41", 0, 0, {}], ["batch_normalization_42", 0, 0, {}], ["batch_normalization_43", 0, 0, {}], ["batch_normalization_44", 0, 0, {}], ["batch_normalization_45", 0, 0, {}], ["batch_normalization_46", 0, 0, {}], ["batch_normalization_47", 0, 0, {}], ["batch_normalization_48", 0, 0, {}], ["batch_normalization_49", 0, 0, {}], ["batch_normalization_50", 0, 0, {}], ["batch_normalization_51", 0, 0, {}], ["batch_normalization_52", 0, 0, {}], ["batch_normalization_53", 0, 0, {}], ["batch_normalization_54", 0, 0, {}]]], "name": "concatenate_47"}, {"class_name": "Conv2D", "config": {"kernel_constraint": null, "kernel_initializer": {"class_name": "VarianceScaling", "config": {"distribution": "uniform", "scale": 1.0, "seed": null, "mode": "fan_avg"}}, "name": "conv2d_55", "bias_regularizer": null, "bias_constraint": null, "activation": "relu", "trainable": true, "data_format": "channels_last", "padding": "same", "strides": [1, 1], "dilation_rate": [1, 1], "kernel_regularizer": {"class_name": "L1L2", "config": {"l2": 0.00019999999494757503, "l1": 0.0}}, "filters": 12, "bias_initializer": {"class_name": "Zeros", "config": {}}, "use_bias": true, "activity_regularizer": null, "kernel_size": [3, 3]}, "inbound_nodes": [[["concatenate_47", 0, 0, {}]]], "name": "conv2d_55"}, {"class_name": "BatchNormalization", "config": {"beta_constraint": null, "gamma_initializer": {"class_name": "Ones", "config": {}}, "moving_mean_initializer": {"class_name": "Zeros", "config": {}}, "name": "batch_normalization_55", "epsilon": 0.001, "trainable": true, "moving_variance_initializer": {"class_name": "Ones", "config": {}}, "beta_initializer": {"class_name": "Zeros", "config": {}}, "scale": true, "axis": -1, "gamma_constraint": null, "gamma_regularizer": null, "beta_regularizer": null, "momentum": 0.99, "center": true}, "inbound_nodes": [[["conv2d_55", 0, 0, {}]]], "name": "batch_normalization_55"}, {"class_name": "Concatenate", "config": {"trainable": true, "name": "concatenate_48", "axis": -1}, "inbound_nodes": [[["batch_normalization_36", 0, 0, {}], ["batch_normalization_37", 0, 0, {}], ["batch_normalization_38", 0, 0, {}], ["batch_normalization_39", 0, 0, {}], ["batch_normalization_40", 0, 0, {}], ["batch_normalization_41", 0, 0, {}], ["batch_normalization_42", 0, 0, {}], ["batch_normalization_43", 0, 0, {}], ["batch_normalization_44", 0, 0, {}], ["batch_normalization_45", 0, 0, {}], ["batch_normalization_46", 0, 0, {}], ["batch_normalization_47", 0, 0, {}], ["batch_normalization_48", 0, 0, {}], ["batch_normalization_49", 0, 0, {}], ["batch_normalization_50", 0, 0, {}], ["batch_normalization_51", 0, 0, {}], ["batch_normalization_52", 0, 0, {}], ["batch_normalization_53", 0, 0, {}], ["batch_normalization_54", 0, 0, {}], ["batch_normalization_55", 0, 0, {}]]], "name": "concatenate_48"}, {"class_name": "Conv2D", "config": {"kernel_constraint": null, "kernel_initializer": {"class_name": "VarianceScaling", "config": {"distribution": "uniform", "scale": 1.0, "seed": null, "mode": "fan_avg"}}, "name": "conv2d_56", "bias_regularizer": null, "bias_constraint": null, "activation": "relu", "trainable": true, "data_format": "channels_last", "padding": "same", "strides": [1, 1], "dilation_rate": [1, 1], "kernel_regularizer": {"class_name": "L1L2", "config": {"l2": 0.00019999999494757503, "l1": 0.0}}, "filters": 256, "bias_initializer": {"class_name": "Zeros", "config": {}}, "use_bias": true, "activity_regularizer": null, "kernel_size": [3, 3]}, "inbound_nodes": [[["concatenate_48", 0, 0, {}]]], "name": "conv2d_56"}, {"class_name": "BatchNormalization", "config": {"beta_constraint": null, "gamma_initializer": {"class_name": "Ones", "config": {}}, "moving_mean_initializer": {"class_name": "Zeros", "config": {}}, "name": "batch_normalization_56", "epsilon": 0.001, "trainable": true, "moving_variance_initializer": {"class_name": "Ones", "config": {}}, "beta_initializer": {"class_name": "Zeros", "config": {}}, "scale": true, "axis": -1, "gamma_constraint": null, "gamma_regularizer": null, "beta_regularizer": null, "momentum": 0.99, "center": true}, "inbound_nodes": [[["conv2d_56", 0, 0, {}]]], "name": "batch_normalization_56"}, {"class_name": "MaxPooling2D", "config": {"name": "max_pooling2d_4", "trainable": true, "data_format": "channels_last", "pool_size": [2, 2], "padding": "valid", "strides": [2, 2]}, "inbound_nodes": [[["batch_normalization_56", 0, 0, {}]]], "name": "max_pooling2d_4"}, {"class_name": "Dropout", "config": {"rate": 0.3, "noise_shape": null, "trainable": true, "seed": null, "name": "dropout_4"}, "inbound_nodes": [[["max_pooling2d_4", 0, 0, {}]]], "name": "dropout_4"}, {"class_name": "Conv2D", "config": {"kernel_constraint": null, "kernel_initializer": {"class_name": "VarianceScaling", "config": {"distribution": "uniform", "scale": 1.0, "seed": null, "mode": "fan_avg"}}, "name": "conv2d_57", "bias_regularizer": null, "bias_constraint": null, "activation": "relu", "trainable": true, "data_format": "channels_last", "padding": "same", "strides": [1, 1], "dilation_rate": [1, 1], "kernel_regularizer": {"class_name": "L1L2", "config": {"l2": 0.00019999999494757503, "l1": 0.0}}, "filters": 12, "bias_initializer": {"class_name": "Zeros", "config": {}}, "use_bias": true, "activity_regularizer": null, "kernel_size": [3, 3]}, "inbound_nodes": [[["dropout_4", 0, 0, {}]]], "name": "conv2d_57"}, {"class_name": "BatchNormalization", "config": {"beta_constraint": null, "gamma_initializer": {"class_name": "Ones", "config": {}}, "moving_mean_initializer": {"class_name": "Zeros", "config": {}}, "name": "batch_normalization_57", "epsilon": 0.001, "trainable": true, "moving_variance_initializer": {"class_name": "Ones", "config": {}}, "beta_initializer": {"class_name": "Zeros", "config": {}}, "scale": true, "axis": -1, "gamma_constraint": null, "gamma_regularizer": null, "beta_regularizer": null, "momentum": 0.99, "center": true}, "inbound_nodes": [[["conv2d_57", 0, 0, {}]]], "name": "batch_normalization_57"}, {"class_name": "Conv2D", "config": {"kernel_constraint": null, "kernel_initializer": {"class_name": "VarianceScaling", "config": {"distribution": "uniform", "scale": 1.0, "seed": null, "mode": "fan_avg"}}, "name": "conv2d_58", "bias_regularizer": null, "bias_constraint": null, "activation": "relu", "trainable": true, "data_format": "channels_last", "padding": "same", "strides": [1, 1], "dilation_rate": [1, 1], "kernel_regularizer": {"class_name": "L1L2", "config": {"l2": 0.00019999999494757503, "l1": 0.0}}, "filters": 12, "bias_initializer": {"class_name": "Zeros", "config": {}}, "use_bias": true, "activity_regularizer": null, "kernel_size": [3, 3]}, "inbound_nodes": [[["batch_normalization_57", 0, 0, {}]]], "name": "conv2d_58"}, {"class_name": "BatchNormalization", "config": {"beta_constraint": null, "gamma_initializer": {"class_name": "Ones", "config": {}}, "moving_mean_initializer": {"class_name": "Zeros", "config": {}}, "name": "batch_normalization_58", "epsilon": 0.001, "trainable": true, "moving_variance_initializer": {"class_name": "Ones", "config": {}}, "beta_initializer": {"class_name": "Zeros", "config": {}}, "scale": true, "axis": -1, "gamma_constraint": null, "gamma_regularizer": null, "beta_regularizer": null, "momentum": 0.99, "center": true}, "inbound_nodes": [[["conv2d_58", 0, 0, {}]]], "name": "batch_normalization_58"}, {"class_name": "Concatenate", "config": {"trainable": true, "name": "concatenate_49", "axis": -1}, "inbound_nodes": [[["batch_normalization_57", 0, 0, {}], ["batch_normalization_58", 0, 0, {}]]], "name": "concatenate_49"}, {"class_name": "Conv2D", "config": {"kernel_constraint": null, "kernel_initializer": {"class_name": "VarianceScaling", "config": {"distribution": "uniform", "scale": 1.0, "seed": null, "mode": "fan_avg"}}, "name": "conv2d_59", "bias_regularizer": null, "bias_constraint": null, "activation": "relu", "trainable": true, "data_format": "channels_last", "padding": "same", "strides": [1, 1], "dilation_rate": [1, 1], "kernel_regularizer": {"class_name": "L1L2", "config": {"l2": 0.00019999999494757503, "l1": 0.0}}, "filters": 12, "bias_initializer": {"class_name": "Zeros", "config": {}}, "use_bias": true, "activity_regularizer": null, "kernel_size": [3, 3]}, "inbound_nodes": [[["concatenate_49", 0, 0, {}]]], "name": "conv2d_59"}, {"class_name": "BatchNormalization", "config": {"beta_constraint": null, "gamma_initializer": {"class_name": "Ones", "config": {}}, "moving_mean_initializer": {"class_name": "Zeros", "config": {}}, "name": "batch_normalization_59", "epsilon": 0.001, "trainable": true, "moving_variance_initializer": {"class_name": "Ones", "config": {}}, "beta_initializer": {"class_name": "Zeros", "config": {}}, "scale": true, "axis": -1, "gamma_constraint": null, "gamma_regularizer": null, "beta_regularizer": null, "momentum": 0.99, "center": true}, "inbound_nodes": [[["conv2d_59", 0, 0, {}]]], "name": "batch_normalization_59"}, {"class_name": "Concatenate", "config": {"trainable": true, "name": "concatenate_50", "axis": -1}, "inbound_nodes": [[["batch_normalization_57", 0, 0, {}], ["batch_normalization_58", 0, 0, {}], ["batch_normalization_59", 0, 0, {}]]], "name": "concatenate_50"}, {"class_name": "Conv2D", "config": {"kernel_constraint": null, "kernel_initializer": {"class_name": "VarianceScaling", "config": {"distribution": "uniform", "scale": 1.0, "seed": null, "mode": "fan_avg"}}, "name": "conv2d_60", "bias_regularizer": null, "bias_constraint": null, "activation": "relu", "trainable": true, "data_format": "channels_last", "padding": "same", "strides": [1, 1], "dilation_rate": [1, 1], "kernel_regularizer": {"class_name": "L1L2", "config": {"l2": 0.00019999999494757503, "l1": 0.0}}, "filters": 12, "bias_initializer": {"class_name": "Zeros", "config": {}}, "use_bias": true, "activity_regularizer": null, "kernel_size": [3, 3]}, "inbound_nodes": [[["concatenate_50", 0, 0, {}]]], "name": "conv2d_60"}, {"class_name": "BatchNormalization", "config": {"beta_constraint": null, "gamma_initializer": {"class_name": "Ones", "config": {}}, "moving_mean_initializer": {"class_name": "Zeros", "config": {}}, "name": "batch_normalization_60", "epsilon": 0.001, "trainable": true, "moving_variance_initializer": {"class_name": "Ones", "config": {}}, "beta_initializer": {"class_name": "Zeros", "config": {}}, "scale": true, "axis": -1, "gamma_constraint": null, "gamma_regularizer": null, "beta_regularizer": null, "momentum": 0.99, "center": true}, "inbound_nodes": [[["conv2d_60", 0, 0, {}]]], "name": "batch_normalization_60"}, {"class_name": "Concatenate", "config": {"trainable": true, "name": "concatenate_51", "axis": -1}, "inbound_nodes": [[["batch_normalization_57", 0, 0, {}], ["batch_normalization_58", 0, 0, {}], ["batch_normalization_59", 0, 0, {}], ["batch_normalization_60", 0, 0, {}]]], "name": "concatenate_51"}, {"class_name": "Conv2D", "config": {"kernel_constraint": null, "kernel_initializer": {"class_name": "VarianceScaling", "config": {"distribution": "uniform", "scale": 1.0, "seed": null, "mode": "fan_avg"}}, "name": "conv2d_61", "bias_regularizer": null, "bias_constraint": null, "activation": "relu", "trainable": true, "data_format": "channels_last", "padding": "same", "strides": [1, 1], "dilation_rate": [1, 1], "kernel_regularizer": {"class_name": "L1L2", "config": {"l2": 0.00019999999494757503, "l1": 0.0}}, "filters": 12, "bias_initializer": {"class_name": "Zeros", "config": {}}, "use_bias": true, "activity_regularizer": null, "kernel_size": [3, 3]}, "inbound_nodes": [[["concatenate_51", 0, 0, {}]]], "name": "conv2d_61"}, {"class_name": "BatchNormalization", "config": {"beta_constraint": null, "gamma_initializer": {"class_name": "Ones", "config": {}}, "moving_mean_initializer": {"class_name": "Zeros", "config": {}}, "name": "batch_normalization_61", "epsilon": 0.001, "trainable": true, "moving_variance_initializer": {"class_name": "Ones", "config": {}}, "beta_initializer": {"class_name": "Zeros", "config": {}}, "scale": true, "axis": -1, "gamma_constraint": null, "gamma_regularizer": null, "beta_regularizer": null, "momentum": 0.99, "center": true}, "inbound_nodes": [[["conv2d_61", 0, 0, {}]]], "name": "batch_normalization_61"}, {"class_name": "Concatenate", "config": {"trainable": true, "name": "concatenate_52", "axis": -1}, "inbound_nodes": [[["batch_normalization_57", 0, 0, {}], ["batch_normalization_58", 0, 0, {}], ["batch_normalization_59", 0, 0, {}], ["batch_normalization_60", 0, 0, {}], ["batch_normalization_61", 0, 0, {}]]], "name": "concatenate_52"}, {"class_name": "Conv2D", "config": {"kernel_constraint": null, "kernel_initializer": {"class_name": "VarianceScaling", "config": {"distribution": "uniform", "scale": 1.0, "seed": null, "mode": "fan_avg"}}, "name": "conv2d_62", "bias_regularizer": null, "bias_constraint": null, "activation": "relu", "trainable": true, "data_format": "channels_last", "padding": "same", "strides": [1, 1], "dilation_rate": [1, 1], "kernel_regularizer": {"class_name": "L1L2", "config": {"l2": 0.00019999999494757503, "l1": 0.0}}, "filters": 12, "bias_initializer": {"class_name": "Zeros", "config": {}}, "use_bias": true, "activity_regularizer": null, "kernel_size": [3, 3]}, "inbound_nodes": [[["concatenate_52", 0, 0, {}]]], "name": "conv2d_62"}, {"class_name": "BatchNormalization", "config": {"beta_constraint": null, "gamma_initializer": {"class_name": "Ones", "config": {}}, "moving_mean_initializer": {"class_name": "Zeros", "config": {}}, "name": "batch_normalization_62", "epsilon": 0.001, "trainable": true, "moving_variance_initializer": {"class_name": "Ones", "config": {}}, "beta_initializer": {"class_name": "Zeros", "config": {}}, "scale": true, "axis": -1, "gamma_constraint": null, "gamma_regularizer": null, "beta_regularizer": null, "momentum": 0.99, "center": true}, "inbound_nodes": [[["conv2d_62", 0, 0, {}]]], "name": "batch_normalization_62"}, {"class_name": "Concatenate", "config": {"trainable": true, "name": "concatenate_53", "axis": -1}, "inbound_nodes": [[["batch_normalization_57", 0, 0, {}], ["batch_normalization_58", 0, 0, {}], ["batch_normalization_59", 0, 0, {}], ["batch_normalization_60", 0, 0, {}], ["batch_normalization_61", 0, 0, {}], ["batch_normalization_62", 0, 0, {}]]], "name": "concatenate_53"}, {"class_name": "Conv2D", "config": {"kernel_constraint": null, "kernel_initializer": {"class_name": "VarianceScaling", "config": {"distribution": "uniform", "scale": 1.0, "seed": null, "mode": "fan_avg"}}, "name": "conv2d_63", "bias_regularizer": null, "bias_constraint": null, "activation": "relu", "trainable": true, "data_format": "channels_last", "padding": "same", "strides": [1, 1], "dilation_rate": [1, 1], "kernel_regularizer": {"class_name": "L1L2", "config": {"l2": 0.00019999999494757503, "l1": 0.0}}, "filters": 12, "bias_initializer": {"class_name": "Zeros", "config": {}}, "use_bias": true, "activity_regularizer": null, "kernel_size": [3, 3]}, "inbound_nodes": [[["concatenate_53", 0, 0, {}]]], "name": "conv2d_63"}, {"class_name": "BatchNormalization", "config": {"beta_constraint": null, "gamma_initializer": {"class_name": "Ones", "config": {}}, "moving_mean_initializer": {"class_name": "Zeros", "config": {}}, "name": "batch_normalization_63", "epsilon": 0.001, "trainable": true, "moving_variance_initializer": {"class_name": "Ones", "config": {}}, "beta_initializer": {"class_name": "Zeros", "config": {}}, "scale": true, "axis": -1, "gamma_constraint": null, "gamma_regularizer": null, "beta_regularizer": null, "momentum": 0.99, "center": true}, "inbound_nodes": [[["conv2d_63", 0, 0, {}]]], "name": "batch_normalization_63"}, {"class_name": "Concatenate", "config": {"trainable": true, "name": "concatenate_54", "axis": -1}, "inbound_nodes": [[["batch_normalization_57", 0, 0, {}], ["batch_normalization_58", 0, 0, {}], ["batch_normalization_59", 0, 0, {}], ["batch_normalization_60", 0, 0, {}], ["batch_normalization_61", 0, 0, {}], ["batch_normalization_62", 0, 0, {}], ["batch_normalization_63", 0, 0, {}]]], "name": "concatenate_54"}, {"class_name": "Conv2D", "config": {"kernel_constraint": null, "kernel_initializer": {"class_name": "VarianceScaling", "config": {"distribution": "uniform", "scale": 1.0, "seed": null, "mode": "fan_avg"}}, "name": "conv2d_64", "bias_regularizer": null, "bias_constraint": null, "activation": "relu", "trainable": true, "data_format": "channels_last", "padding": "same", "strides": [1, 1], "dilation_rate": [1, 1], "kernel_regularizer": {"class_name": "L1L2", "config": {"l2": 0.00019999999494757503, "l1": 0.0}}, "filters": 12, "bias_initializer": {"class_name": "Zeros", "config": {}}, "use_bias": true, "activity_regularizer": null, "kernel_size": [3, 3]}, "inbound_nodes": [[["concatenate_54", 0, 0, {}]]], "name": "conv2d_64"}, {"class_name": "BatchNormalization", "config": {"beta_constraint": null, "gamma_initializer": {"class_name": "Ones", "config": {}}, "moving_mean_initializer": {"class_name": "Zeros", "config": {}}, "name": "batch_normalization_64", "epsilon": 0.001, "trainable": true, "moving_variance_initializer": {"class_name": "Ones", "config": {}}, "beta_initializer": {"class_name": "Zeros", "config": {}}, "scale": true, "axis": -1, "gamma_constraint": null, "gamma_regularizer": null, "beta_regularizer": null, "momentum": 0.99, "center": true}, "inbound_nodes": [[["conv2d_64", 0, 0, {}]]], "name": "batch_normalization_64"}, {"class_name": "Concatenate", "config": {"trainable": true, "name": "concatenate_55", "axis": -1}, "inbound_nodes": [[["batch_normalization_57", 0, 0, {}], ["batch_normalization_58", 0, 0, {}], ["batch_normalization_59", 0, 0, {}], ["batch_normalization_60", 0, 0, {}], ["batch_normalization_61", 0, 0, {}], ["batch_normalization_62", 0, 0, {}], ["batch_normalization_63", 0, 0, {}], ["batch_normalization_64", 0, 0, {}]]], "name": "concatenate_55"}, {"class_name": "Conv2D", "config": {"kernel_constraint": null, "kernel_initializer": {"class_name": "VarianceScaling", "config": {"distribution": "uniform", "scale": 1.0, "seed": null, "mode": "fan_avg"}}, "name": "conv2d_65", "bias_regularizer": null, "bias_constraint": null, "activation": "relu", "trainable": true, "data_format": "channels_last", "padding": "same", "strides": [1, 1], "dilation_rate": [1, 1], "kernel_regularizer": {"class_name": "L1L2", "config": {"l2": 0.00019999999494757503, "l1": 0.0}}, "filters": 12, "bias_initializer": {"class_name": "Zeros", "config": {}}, "use_bias": true, "activity_regularizer": null, "kernel_size": [3, 3]}, "inbound_nodes": [[["concatenate_55", 0, 0, {}]]], "name": "conv2d_65"}, {"class_name": "BatchNormalization", "config": {"beta_constraint": null, "gamma_initializer": {"class_name": "Ones", "config": {}}, "moving_mean_initializer": {"class_name": "Zeros", "config": {}}, "name": "batch_normalization_65", "epsilon": 0.001, "trainable": true, "moving_variance_initializer": {"class_name": "Ones", "config": {}}, "beta_initializer": {"class_name": "Zeros", "config": {}}, "scale": true, "axis": -1, "gamma_constraint": null, "gamma_regularizer": null, "beta_regularizer": null, "momentum": 0.99, "center": true}, "inbound_nodes": [[["conv2d_65", 0, 0, {}]]], "name": "batch_normalization_65"}, {"class_name": "Concatenate", "config": {"trainable": true, "name": "concatenate_56", "axis": -1}, "inbound_nodes": [[["batch_normalization_57", 0, 0, {}], ["batch_normalization_58", 0, 0, {}], ["batch_normalization_59", 0, 0, {}], ["batch_normalization_60", 0, 0, {}], ["batch_normalization_61", 0, 0, {}], ["batch_normalization_62", 0, 0, {}], ["batch_normalization_63", 0, 0, {}], ["batch_normalization_64", 0, 0, {}], ["batch_normalization_65", 0, 0, {}]]], "name": "concatenate_56"}, {"class_name": "Conv2D", "config": {"kernel_constraint": null, "kernel_initializer": {"class_name": "VarianceScaling", "config": {"distribution": "uniform", "scale": 1.0, "seed": null, "mode": "fan_avg"}}, "name": "conv2d_66", "bias_regularizer": null, "bias_constraint": null, "activation": "relu", "trainable": true, "data_format": "channels_last", "padding": "same", "strides": [1, 1], "dilation_rate": [1, 1], "kernel_regularizer": {"class_name": "L1L2", "config": {"l2": 0.00019999999494757503, "l1": 0.0}}, "filters": 12, "bias_initializer": {"class_name": "Zeros", "config": {}}, "use_bias": true, "activity_regularizer": null, "kernel_size": [3, 3]}, "inbound_nodes": [[["concatenate_56", 0, 0, {}]]], "name": "conv2d_66"}, {"class_name": "BatchNormalization", "config": {"beta_constraint": null, "gamma_initializer": {"class_name": "Ones", "config": {}}, "moving_mean_initializer": {"class_name": "Zeros", "config": {}}, "name": "batch_normalization_66", "epsilon": 0.001, "trainable": true, "moving_variance_initializer": {"class_name": "Ones", "config": {}}, "beta_initializer": {"class_name": "Zeros", "config": {}}, "scale": true, "axis": -1, "gamma_constraint": null, "gamma_regularizer": null, "beta_regularizer": null, "momentum": 0.99, "center": true}, "inbound_nodes": [[["conv2d_66", 0, 0, {}]]], "name": "batch_normalization_66"}, {"class_name": "Concatenate", "config": {"trainable": true, "name": "concatenate_57", "axis": -1}, "inbound_nodes": [[["batch_normalization_57", 0, 0, {}], ["batch_normalization_58", 0, 0, {}], ["batch_normalization_59", 0, 0, {}], ["batch_normalization_60", 0, 0, {}], ["batch_normalization_61", 0, 0, {}], ["batch_normalization_62", 0, 0, {}], ["batch_normalization_63", 0, 0, {}], ["batch_normalization_64", 0, 0, {}], ["batch_normalization_65", 0, 0, {}], ["batch_normalization_66", 0, 0, {}]]], "name": "concatenate_57"}, {"class_name": "Conv2D", "config": {"kernel_constraint": null, "kernel_initializer": {"class_name": "VarianceScaling", "config": {"distribution": "uniform", "scale": 1.0, "seed": null, "mode": "fan_avg"}}, "name": "conv2d_67", "bias_regularizer": null, "bias_constraint": null, "activation": "relu", "trainable": true, "data_format": "channels_last", "padding": "same", "strides": [1, 1], "dilation_rate": [1, 1], "kernel_regularizer": {"class_name": "L1L2", "config": {"l2": 0.00019999999494757503, "l1": 0.0}}, "filters": 12, "bias_initializer": {"class_name": "Zeros", "config": {}}, "use_bias": true, "activity_regularizer": null, "kernel_size": [3, 3]}, "inbound_nodes": [[["concatenate_57", 0, 0, {}]]], "name": "conv2d_67"}, {"class_name": "BatchNormalization", "config": {"beta_constraint": null, "gamma_initializer": {"class_name": "Ones", "config": {}}, "moving_mean_initializer": {"class_name": "Zeros", "config": {}}, "name": "batch_normalization_67", "epsilon": 0.001, "trainable": true, "moving_variance_initializer": {"class_name": "Ones", "config": {}}, "beta_initializer": {"class_name": "Zeros", "config": {}}, "scale": true, "axis": -1, "gamma_constraint": null, "gamma_regularizer": null, "beta_regularizer": null, "momentum": 0.99, "center": true}, "inbound_nodes": [[["conv2d_67", 0, 0, {}]]], "name": "batch_normalization_67"}, {"class_name": "Concatenate", "config": {"trainable": true, "name": "concatenate_58", "axis": -1}, "inbound_nodes": [[["batch_normalization_57", 0, 0, {}], ["batch_normalization_58", 0, 0, {}], ["batch_normalization_59", 0, 0, {}], ["batch_normalization_60", 0, 0, {}], ["batch_normalization_61", 0, 0, {}], ["batch_normalization_62", 0, 0, {}], ["batch_normalization_63", 0, 0, {}], ["batch_normalization_64", 0, 0, {}], ["batch_normalization_65", 0, 0, {}], ["batch_normalization_66", 0, 0, {}], ["batch_normalization_67", 0, 0, {}]]], "name": "concatenate_58"}, {"class_name": "Conv2D", "config": {"kernel_constraint": null, "kernel_initializer": {"class_name": "VarianceScaling", "config": {"distribution": "uniform", "scale": 1.0, "seed": null, "mode": "fan_avg"}}, "name": "conv2d_68", "bias_regularizer": null, "bias_constraint": null, "activation": "relu", "trainable": true, "data_format": "channels_last", "padding": "same", "strides": [1, 1], "dilation_rate": [1, 1], "kernel_regularizer": {"class_name": "L1L2", "config": {"l2": 0.00019999999494757503, "l1": 0.0}}, "filters": 12, "bias_initializer": {"class_name": "Zeros", "config": {}}, "use_bias": true, "activity_regularizer": null, "kernel_size": [3, 3]}, "inbound_nodes": [[["concatenate_58", 0, 0, {}]]], "name": "conv2d_68"}, {"class_name": "BatchNormalization", "config": {"beta_constraint": null, "gamma_initializer": {"class_name": "Ones", "config": {}}, "moving_mean_initializer": {"class_name": "Zeros", "config": {}}, "name": "batch_normalization_68", "epsilon": 0.001, "trainable": true, "moving_variance_initializer": {"class_name": "Ones", "config": {}}, "beta_initializer": {"class_name": "Zeros", "config": {}}, "scale": true, "axis": -1, "gamma_constraint": null, "gamma_regularizer": null, "beta_regularizer": null, "momentum": 0.99, "center": true}, "inbound_nodes": [[["conv2d_68", 0, 0, {}]]], "name": "batch_normalization_68"}, {"class_name": "Concatenate", "config": {"trainable": true, "name": "concatenate_59", "axis": -1}, "inbound_nodes": [[["batch_normalization_57", 0, 0, {}], ["batch_normalization_58", 0, 0, {}], ["batch_normalization_59", 0, 0, {}], ["batch_normalization_60", 0, 0, {}], ["batch_normalization_61", 0, 0, {}], ["batch_normalization_62", 0, 0, {}], ["batch_normalization_63", 0, 0, {}], ["batch_normalization_64", 0, 0, {}], ["batch_normalization_65", 0, 0, {}], ["batch_normalization_66", 0, 0, {}], ["batch_normalization_67", 0, 0, {}], ["batch_normalization_68", 0, 0, {}]]], "name": "concatenate_59"}, {"class_name": "Conv2D", "config": {"kernel_constraint": null, "kernel_initializer": {"class_name": "VarianceScaling", "config": {"distribution": "uniform", "scale": 1.0, "seed": null, "mode": "fan_avg"}}, "name": "conv2d_69", "bias_regularizer": null, "bias_constraint": null, "activation": "relu", "trainable": true, "data_format": "channels_last", "padding": "same", "strides": [1, 1], "dilation_rate": [1, 1], "kernel_regularizer": {"class_name": "L1L2", "config": {"l2": 0.00019999999494757503, "l1": 0.0}}, "filters": 12, "bias_initializer": {"class_name": "Zeros", "config": {}}, "use_bias": true, "activity_regularizer": null, "kernel_size": [3, 3]}, "inbound_nodes": [[["concatenate_59", 0, 0, {}]]], "name": "conv2d_69"}, {"class_name": "BatchNormalization", "config": {"beta_constraint": null, "gamma_initializer": {"class_name": "Ones", "config": {}}, "moving_mean_initializer": {"class_name": "Zeros", "config": {}}, "name": "batch_normalization_69", "epsilon": 0.001, "trainable": true, "moving_variance_initializer": {"class_name": "Ones", "config": {}}, "beta_initializer": {"class_name": "Zeros", "config": {}}, "scale": true, "axis": -1, "gamma_constraint": null, "gamma_regularizer": null, "beta_regularizer": null, "momentum": 0.99, "center": true}, "inbound_nodes": [[["conv2d_69", 0, 0, {}]]], "name": "batch_normalization_69"}, {"class_name": "Concatenate", "config": {"trainable": true, "name": "concatenate_60", "axis": -1}, "inbound_nodes": [[["batch_normalization_57", 0, 0, {}], ["batch_normalization_58", 0, 0, {}], ["batch_normalization_59", 0, 0, {}], ["batch_normalization_60", 0, 0, {}], ["batch_normalization_61", 0, 0, {}], ["batch_normalization_62", 0, 0, {}], ["batch_normalization_63", 0, 0, {}], ["batch_normalization_64", 0, 0, {}], ["batch_normalization_65", 0, 0, {}], ["batch_normalization_66", 0, 0, {}], ["batch_normalization_67", 0, 0, {}], ["batch_normalization_68", 0, 0, {}], ["batch_normalization_69", 0, 0, {}]]], "name": "concatenate_60"}, {"class_name": "Conv2D", "config": {"kernel_constraint": null, "kernel_initializer": {"class_name": "VarianceScaling", "config": {"distribution": "uniform", "scale": 1.0, "seed": null, "mode": "fan_avg"}}, "name": "conv2d_70", "bias_regularizer": null, "bias_constraint": null, "activation": "relu", "trainable": true, "data_format": "channels_last", "padding": "same", "strides": [1, 1], "dilation_rate": [1, 1], "kernel_regularizer": {"class_name": "L1L2", "config": {"l2": 0.00019999999494757503, "l1": 0.0}}, "filters": 12, "bias_initializer": {"class_name": "Zeros", "config": {}}, "use_bias": true, "activity_regularizer": null, "kernel_size": [3, 3]}, "inbound_nodes": [[["concatenate_60", 0, 0, {}]]], "name": "conv2d_70"}, {"class_name": "BatchNormalization", "config": {"beta_constraint": null, "gamma_initializer": {"class_name": "Ones", "config": {}}, "moving_mean_initializer": {"class_name": "Zeros", "config": {}}, "name": "batch_normalization_70", "epsilon": 0.001, "trainable": true, "moving_variance_initializer": {"class_name": "Ones", "config": {}}, "beta_initializer": {"class_name": "Zeros", "config": {}}, "scale": true, "axis": -1, "gamma_constraint": null, "gamma_regularizer": null, "beta_regularizer": null, "momentum": 0.99, "center": true}, "inbound_nodes": [[["conv2d_70", 0, 0, {}]]], "name": "batch_normalization_70"}, {"class_name": "Concatenate", "config": {"trainable": true, "name": "concatenate_61", "axis": -1}, "inbound_nodes": [[["batch_normalization_57", 0, 0, {}], ["batch_normalization_58", 0, 0, {}], ["batch_normalization_59", 0, 0, {}], ["batch_normalization_60", 0, 0, {}], ["batch_normalization_61", 0, 0, {}], ["batch_normalization_62", 0, 0, {}], ["batch_normalization_63", 0, 0, {}], ["batch_normalization_64", 0, 0, {}], ["batch_normalization_65", 0, 0, {}], ["batch_normalization_66", 0, 0, {}], ["batch_normalization_67", 0, 0, {}], ["batch_normalization_68", 0, 0, {}], ["batch_normalization_69", 0, 0, {}], ["batch_normalization_70", 0, 0, {}]]], "name": "concatenate_61"}, {"class_name": "Conv2D", "config": {"kernel_constraint": null, "kernel_initializer": {"class_name": "VarianceScaling", "config": {"distribution": "uniform", "scale": 1.0, "seed": null, "mode": "fan_avg"}}, "name": "conv2d_71", "bias_regularizer": null, "bias_constraint": null, "activation": "relu", "trainable": true, "data_format": "channels_last", "padding": "same", "strides": [1, 1], "dilation_rate": [1, 1], "kernel_regularizer": {"class_name": "L1L2", "config": {"l2": 0.00019999999494757503, "l1": 0.0}}, "filters": 12, "bias_initializer": {"class_name": "Zeros", "config": {}}, "use_bias": true, "activity_regularizer": null, "kernel_size": [3, 3]}, "inbound_nodes": [[["concatenate_61", 0, 0, {}]]], "name": "conv2d_71"}, {"class_name": "BatchNormalization", "config": {"beta_constraint": null, "gamma_initializer": {"class_name": "Ones", "config": {}}, "moving_mean_initializer": {"class_name": "Zeros", "config": {}}, "name": "batch_normalization_71", "epsilon": 0.001, "trainable": true, "moving_variance_initializer": {"class_name": "Ones", "config": {}}, "beta_initializer": {"class_name": "Zeros", "config": {}}, "scale": true, "axis": -1, "gamma_constraint": null, "gamma_regularizer": null, "beta_regularizer": null, "momentum": 0.99, "center": true}, "inbound_nodes": [[["conv2d_71", 0, 0, {}]]], "name": "batch_normalization_71"}, {"class_name": "Concatenate", "config": {"trainable": true, "name": "concatenate_62", "axis": -1}, "inbound_nodes": [[["batch_normalization_57", 0, 0, {}], ["batch_normalization_58", 0, 0, {}], ["batch_normalization_59", 0, 0, {}], ["batch_normalization_60", 0, 0, {}], ["batch_normalization_61", 0, 0, {}], ["batch_normalization_62", 0, 0, {}], ["batch_normalization_63", 0, 0, {}], ["batch_normalization_64", 0, 0, {}], ["batch_normalization_65", 0, 0, {}], ["batch_normalization_66", 0, 0, {}], ["batch_normalization_67", 0, 0, {}], ["batch_normalization_68", 0, 0, {}], ["batch_normalization_69", 0, 0, {}], ["batch_normalization_70", 0, 0, {}], ["batch_normalization_71", 0, 0, {}]]], "name": "concatenate_62"}, {"class_name": "Conv2D", "config": {"kernel_constraint": null, "kernel_initializer": {"class_name": "VarianceScaling", "config": {"distribution": "uniform", "scale": 1.0, "seed": null, "mode": "fan_avg"}}, "name": "conv2d_72", "bias_regularizer": null, "bias_constraint": null, "activation": "relu", "trainable": true, "data_format": "channels_last", "padding": "same", "strides": [1, 1], "dilation_rate": [1, 1], "kernel_regularizer": {"class_name": "L1L2", "config": {"l2": 0.00019999999494757503, "l1": 0.0}}, "filters": 12, "bias_initializer": {"class_name": "Zeros", "config": {}}, "use_bias": true, "activity_regularizer": null, "kernel_size": [3, 3]}, "inbound_nodes": [[["concatenate_62", 0, 0, {}]]], "name": "conv2d_72"}, {"class_name": "BatchNormalization", "config": {"beta_constraint": null, "gamma_initializer": {"class_name": "Ones", "config": {}}, "moving_mean_initializer": {"class_name": "Zeros", "config": {}}, "name": "batch_normalization_72", "epsilon": 0.001, "trainable": true, "moving_variance_initializer": {"class_name": "Ones", "config": {}}, "beta_initializer": {"class_name": "Zeros", "config": {}}, "scale": true, "axis": -1, "gamma_constraint": null, "gamma_regularizer": null, "beta_regularizer": null, "momentum": 0.99, "center": true}, "inbound_nodes": [[["conv2d_72", 0, 0, {}]]], "name": "batch_normalization_72"}, {"class_name": "Concatenate", "config": {"trainable": true, "name": "concatenate_63", "axis": -1}, "inbound_nodes": [[["batch_normalization_57", 0, 0, {}], ["batch_normalization_58", 0, 0, {}], ["batch_normalization_59", 0, 0, {}], ["batch_normalization_60", 0, 0, {}], ["batch_normalization_61", 0, 0, {}], ["batch_normalization_62", 0, 0, {}], ["batch_normalization_63", 0, 0, {}], ["batch_normalization_64", 0, 0, {}], ["batch_normalization_65", 0, 0, {}], ["batch_normalization_66", 0, 0, {}], ["batch_normalization_67", 0, 0, {}], ["batch_normalization_68", 0, 0, {}], ["batch_normalization_69", 0, 0, {}], ["batch_normalization_70", 0, 0, {}], ["batch_normalization_71", 0, 0, {}], ["batch_normalization_72", 0, 0, {}]]], "name": "concatenate_63"}, {"class_name": "Conv2D", "config": {"kernel_constraint": null, "kernel_initializer": {"class_name": "VarianceScaling", "config": {"distribution": "uniform", "scale": 1.0, "seed": null, "mode": "fan_avg"}}, "name": "conv2d_73", "bias_regularizer": null, "bias_constraint": null, "activation": "relu", "trainable": true, "data_format": "channels_last", "padding": "same", "strides": [1, 1], "dilation_rate": [1, 1], "kernel_regularizer": {"class_name": "L1L2", "config": {"l2": 0.00019999999494757503, "l1": 0.0}}, "filters": 12, "bias_initializer": {"class_name": "Zeros", "config": {}}, "use_bias": true, "activity_regularizer": null, "kernel_size": [3, 3]}, "inbound_nodes": [[["concatenate_63", 0, 0, {}]]], "name": "conv2d_73"}, {"class_name": "BatchNormalization", "config": {"beta_constraint": null, "gamma_initializer": {"class_name": "Ones", "config": {}}, "moving_mean_initializer": {"class_name": "Zeros", "config": {}}, "name": "batch_normalization_73", "epsilon": 0.001, "trainable": true, "moving_variance_initializer": {"class_name": "Ones", "config": {}}, "beta_initializer": {"class_name": "Zeros", "config": {}}, "scale": true, "axis": -1, "gamma_constraint": null, "gamma_regularizer": null, "beta_regularizer": null, "momentum": 0.99, "center": true}, "inbound_nodes": [[["conv2d_73", 0, 0, {}]]], "name": "batch_normalization_73"}, {"class_name": "Concatenate", "config": {"trainable": true, "name": "concatenate_64", "axis": -1}, "inbound_nodes": [[["batch_normalization_57", 0, 0, {}], ["batch_normalization_58", 0, 0, {}], ["batch_normalization_59", 0, 0, {}], ["batch_normalization_60", 0, 0, {}], ["batch_normalization_61", 0, 0, {}], ["batch_normalization_62", 0, 0, {}], ["batch_normalization_63", 0, 0, {}], ["batch_normalization_64", 0, 0, {}], ["batch_normalization_65", 0, 0, {}], ["batch_normalization_66", 0, 0, {}], ["batch_normalization_67", 0, 0, {}], ["batch_normalization_68", 0, 0, {}], ["batch_normalization_69", 0, 0, {}], ["batch_normalization_70", 0, 0, {}], ["batch_normalization_71", 0, 0, {}], ["batch_normalization_72", 0, 0, {}], ["batch_normalization_73", 0, 0, {}]]], "name": "concatenate_64"}, {"class_name": "Conv2D", "config": {"kernel_constraint": null, "kernel_initializer": {"class_name": "VarianceScaling", "config": {"distribution": "uniform", "scale": 1.0, "seed": null, "mode": "fan_avg"}}, "name": "conv2d_74", "bias_regularizer": null, "bias_constraint": null, "activation": "relu", "trainable": true, "data_format": "channels_last", "padding": "same", "strides": [1, 1], "dilation_rate": [1, 1], "kernel_regularizer": {"class_name": "L1L2", "config": {"l2": 0.00019999999494757503, "l1": 0.0}}, "filters": 12, "bias_initializer": {"class_name": "Zeros", "config": {}}, "use_bias": true, "activity_regularizer": null, "kernel_size": [3, 3]}, "inbound_nodes": [[["concatenate_64", 0, 0, {}]]], "name": "conv2d_74"}, {"class_name": "BatchNormalization", "config": {"beta_constraint": null, "gamma_initializer": {"class_name": "Ones", "config": {}}, "moving_mean_initializer": {"class_name": "Zeros", "config": {}}, "name": "batch_normalization_74", "epsilon": 0.001, "trainable": true, "moving_variance_initializer": {"class_name": "Ones", "config": {}}, "beta_initializer": {"class_name": "Zeros", "config": {}}, "scale": true, "axis": -1, "gamma_constraint": null, "gamma_regularizer": null, "beta_regularizer": null, "momentum": 0.99, "center": true}, "inbound_nodes": [[["conv2d_74", 0, 0, {}]]], "name": "batch_normalization_74"}, {"class_name": "Concatenate", "config": {"trainable": true, "name": "concatenate_65", "axis": -1}, "inbound_nodes": [[["batch_normalization_57", 0, 0, {}], ["batch_normalization_58", 0, 0, {}], ["batch_normalization_59", 0, 0, {}], ["batch_normalization_60", 0, 0, {}], ["batch_normalization_61", 0, 0, {}], ["batch_normalization_62", 0, 0, {}], ["batch_normalization_63", 0, 0, {}], ["batch_normalization_64", 0, 0, {}], ["batch_normalization_65", 0, 0, {}], ["batch_normalization_66", 0, 0, {}], ["batch_normalization_67", 0, 0, {}], ["batch_normalization_68", 0, 0, {}], ["batch_normalization_69", 0, 0, {}], ["batch_normalization_70", 0, 0, {}], ["batch_normalization_71", 0, 0, {}], ["batch_normalization_72", 0, 0, {}], ["batch_normalization_73", 0, 0, {}], ["batch_normalization_74", 0, 0, {}]]], "name": "concatenate_65"}, {"class_name": "Conv2D", "config": {"kernel_constraint": null, "kernel_initializer": {"class_name": "VarianceScaling", "config": {"distribution": "uniform", "scale": 1.0, "seed": null, "mode": "fan_avg"}}, "name": "conv2d_75", "bias_regularizer": null, "bias_constraint": null, "activation": "relu", "trainable": true, "data_format": "channels_last", "padding": "same", "strides": [1, 1], "dilation_rate": [1, 1], "kernel_regularizer": {"class_name": "L1L2", "config": {"l2": 0.00019999999494757503, "l1": 0.0}}, "filters": 12, "bias_initializer": {"class_name": "Zeros", "config": {}}, "use_bias": true, "activity_regularizer": null, "kernel_size": [3, 3]}, "inbound_nodes": [[["concatenate_65", 0, 0, {}]]], "name": "conv2d_75"}, {"class_name": "BatchNormalization", "config": {"beta_constraint": null, "gamma_initializer": {"class_name": "Ones", "config": {}}, "moving_mean_initializer": {"class_name": "Zeros", "config": {}}, "name": "batch_normalization_75", "epsilon": 0.001, "trainable": true, "moving_variance_initializer": {"class_name": "Ones", "config": {}}, "beta_initializer": {"class_name": "Zeros", "config": {}}, "scale": true, "axis": -1, "gamma_constraint": null, "gamma_regularizer": null, "beta_regularizer": null, "momentum": 0.99, "center": true}, "inbound_nodes": [[["conv2d_75", 0, 0, {}]]], "name": "batch_normalization_75"}, {"class_name": "Concatenate", "config": {"trainable": true, "name": "concatenate_66", "axis": -1}, "inbound_nodes": [[["batch_normalization_57", 0, 0, {}], ["batch_normalization_58", 0, 0, {}], ["batch_normalization_59", 0, 0, {}], ["batch_normalization_60", 0, 0, {}], ["batch_normalization_61", 0, 0, {}], ["batch_normalization_62", 0, 0, {}], ["batch_normalization_63", 0, 0, {}], ["batch_normalization_64", 0, 0, {}], ["batch_normalization_65", 0, 0, {}], ["batch_normalization_66", 0, 0, {}], ["batch_normalization_67", 0, 0, {}], ["batch_normalization_68", 0, 0, {}], ["batch_normalization_69", 0, 0, {}], ["batch_normalization_70", 0, 0, {}], ["batch_normalization_71", 0, 0, {}], ["batch_normalization_72", 0, 0, {}], ["batch_normalization_73", 0, 0, {}], ["batch_normalization_74", 0, 0, {}], ["batch_normalization_75", 0, 0, {}]]], "name": "concatenate_66"}, {"class_name": "Conv2D", "config": {"kernel_constraint": null, "kernel_initializer": {"class_name": "VarianceScaling", "config": {"distribution": "uniform", "scale": 1.0, "seed": null, "mode": "fan_avg"}}, "name": "conv2d_76", "bias_regularizer": null, "bias_constraint": null, "activation": "relu", "trainable": true, "data_format": "channels_last", "padding": "same", "strides": [1, 1], "dilation_rate": [1, 1], "kernel_regularizer": {"class_name": "L1L2", "config": {"l2": 0.00019999999494757503, "l1": 0.0}}, "filters": 12, "bias_initializer": {"class_name": "Zeros", "config": {}}, "use_bias": true, "activity_regularizer": null, "kernel_size": [3, 3]}, "inbound_nodes": [[["concatenate_66", 0, 0, {}]]], "name": "conv2d_76"}, {"class_name": "BatchNormalization", "config": {"beta_constraint": null, "gamma_initializer": {"class_name": "Ones", "config": {}}, "moving_mean_initializer": {"class_name": "Zeros", "config": {}}, "name": "batch_normalization_76", "epsilon": 0.001, "trainable": true, "moving_variance_initializer": {"class_name": "Ones", "config": {}}, "beta_initializer": {"class_name": "Zeros", "config": {}}, "scale": true, "axis": -1, "gamma_constraint": null, "gamma_regularizer": null, "beta_regularizer": null, "momentum": 0.99, "center": true}, "inbound_nodes": [[["conv2d_76", 0, 0, {}]]], "name": "batch_normalization_76"}, {"class_name": "Concatenate", "config": {"trainable": true, "name": "concatenate_67", "axis": -1}, "inbound_nodes": [[["batch_normalization_57", 0, 0, {}], ["batch_normalization_58", 0, 0, {}], ["batch_normalization_59", 0, 0, {}], ["batch_normalization_60", 0, 0, {}], ["batch_normalization_61", 0, 0, {}], ["batch_normalization_62", 0, 0, {}], ["batch_normalization_63", 0, 0, {}], ["batch_normalization_64", 0, 0, {}], ["batch_normalization_65", 0, 0, {}], ["batch_normalization_66", 0, 0, {}], ["batch_normalization_67", 0, 0, {}], ["batch_normalization_68", 0, 0, {}], ["batch_normalization_69", 0, 0, {}], ["batch_normalization_70", 0, 0, {}], ["batch_normalization_71", 0, 0, {}], ["batch_normalization_72", 0, 0, {}], ["batch_normalization_73", 0, 0, {}], ["batch_normalization_74", 0, 0, {}], ["batch_normalization_75", 0, 0, {}], ["batch_normalization_76", 0, 0, {}]]], "name": "concatenate_67"}, {"class_name": "Conv2D", "config": {"kernel_constraint": null, "kernel_initializer": {"class_name": "VarianceScaling", "config": {"distribution": "uniform", "scale": 1.0, "seed": null, "mode": "fan_avg"}}, "name": "conv2d_77", "bias_regularizer": null, "bias_constraint": null, "activation": "relu", "trainable": true, "data_format": "channels_last", "padding": "same", "strides": [1, 1], "dilation_rate": [1, 1], "kernel_regularizer": {"class_name": "L1L2", "config": {"l2": 0.00019999999494757503, "l1": 0.0}}, "filters": 512, "bias_initializer": {"class_name": "Zeros", "config": {}}, "use_bias": true, "activity_regularizer": null, "kernel_size": [3, 3]}, "inbound_nodes": [[["concatenate_67", 0, 0, {}]]], "name": "conv2d_77"}, {"class_name": "BatchNormalization", "config": {"beta_constraint": null, "gamma_initializer": {"class_name": "Ones", "config": {}}, "moving_mean_initializer": {"class_name": "Zeros", "config": {}}, "name": "batch_normalization_77", "epsilon": 0.001, "trainable": true, "moving_variance_initializer": {"class_name": "Ones", "config": {}}, "beta_initializer": {"class_name": "Zeros", "config": {}}, "scale": true, "axis": -1, "gamma_constraint": null, "gamma_regularizer": null, "beta_regularizer": null, "momentum": 0.99, "center": true}, "inbound_nodes": [[["conv2d_77", 0, 0, {}]]], "name": "batch_normalization_77"}, {"class_name": "Conv2DTranspose", "config": {"kernel_constraint": null, "kernel_initializer": {"class_name": "VarianceScaling", "config": {"distribution": "uniform", "scale": 1.0, "seed": null, "mode": "fan_avg"}}, "name": "conv2d_transpose_1", "bias_regularizer": null, "bias_constraint": null, "activation": "linear", "trainable": true, "data_format": "channels_last", "padding": "same", "strides": [2, 2], "kernel_regularizer": null, "filters": 12, "bias_initializer": {"class_name": "Zeros", "config": {}}, "use_bias": true, "activity_regularizer": null, "kernel_size": [2, 2]}, "inbound_nodes": [[["batch_normalization_77", 0, 0, {}]]], "name": "conv2d_transpose_1"}, {"class_name": "Conv2DTranspose", "config": {"kernel_constraint": null, "kernel_initializer": {"class_name": "VarianceScaling", "config": {"distribution": "uniform", "scale": 1.0, "seed": null, "mode": "fan_avg"}}, "name": "conv2d_transpose_9", "bias_regularizer": null, "bias_constraint": null, "activation": "linear", "trainable": true, "data_format": "channels_last", "padding": "same", "strides": [2, 2], "kernel_regularizer": null, "filters": 24, "bias_initializer": {"class_name": "Zeros", "config": {}}, "use_bias": true, "activity_regularizer": null, "kernel_size": [2, 2]}, "inbound_nodes": [[["batch_normalization_77", 0, 0, {}]]], "name": "conv2d_transpose_9"}, {"class_name": "Concatenate", "config": {"trainable": true, "name": "up6", "axis": 3}, "inbound_nodes": [[["conv2d_transpose_1", 0, 0, {}], ["batch_normalization_56", 0, 0, {}]]], "name": "up6"}, {"class_name": "Concatenate", "config": {"trainable": true, "name": "xup6", "axis": 3}, "inbound_nodes": [[["conv2d_transpose_9", 0, 0, {}], ["batch_normalization_56", 0, 0, {}]]], "name": "xup6"}, {"class_name": "Dropout", "config": {"rate": 0.3, "noise_shape": null, "trainable": true, "seed": null, "name": "dropout_5"}, "inbound_nodes": [[["up6", 0, 0, {}]]], "name": "dropout_5"}, {"class_name": "Dropout", "config": {"rate": 0.3, "noise_shape": null, "trainable": true, "seed": null, "name": "dropout_9"}, "inbound_nodes": [[["xup6", 0, 0, {}]]], "name": "dropout_9"}, {"class_name": "Conv2D", "config": {"kernel_constraint": null, "kernel_initializer": {"class_name": "VarianceScaling", "config": {"distribution": "uniform", "scale": 1.0, "seed": null, "mode": "fan_avg"}}, "name": "conv2d_78", "bias_regularizer": null, "bias_constraint": null, "activation": "relu", "trainable": true, "data_format": "channels_last", "padding": "same", "strides": [1, 1], "dilation_rate": [1, 1], "kernel_regularizer": {"class_name": "L1L2", "config": {"l2": 0.00019999999494757503, "l1": 0.0}}, "filters": 12, "bias_initializer": {"class_name": "Zeros", "config": {}}, "use_bias": true, "activity_regularizer": null, "kernel_size": [3, 3]}, "inbound_nodes": [[["dropout_5", 0, 0, {}]]], "name": "conv2d_78"}, {"class_name": "Conv2D", "config": {"kernel_constraint": null, "kernel_initializer": {"class_name": "VarianceScaling", "config": {"distribution": "uniform", "scale": 1.0, "seed": null, "mode": "fan_avg"}}, "name": "conv2d_134", "bias_regularizer": null, "bias_constraint": null, "activation": "relu", "trainable": true, "data_format": "channels_last", "padding": "same", "strides": [1, 1], "dilation_rate": [1, 1], "kernel_regularizer": {"class_name": "L1L2", "config": {"l2": 0.00019999999494757503, "l1": 0.0}}, "filters": 12, "bias_initializer": {"class_name": "Zeros", "config": {}}, "use_bias": true, "activity_regularizer": null, "kernel_size": [3, 3]}, "inbound_nodes": [[["dropout_9", 0, 0, {}]]], "name": "conv2d_134"}, {"class_name": "BatchNormalization", "config": {"beta_constraint": null, "gamma_initializer": {"class_name": "Ones", "config": {}}, "moving_mean_initializer": {"class_name": "Zeros", "config": {}}, "name": "batch_normalization_79", "epsilon": 0.001, "trainable": true, "moving_variance_initializer": {"class_name": "Ones", "config": {}}, "beta_initializer": {"class_name": "Zeros", "config": {}}, "scale": true, "axis": -1, "gamma_constraint": null, "gamma_regularizer": null, "beta_regularizer": null, "momentum": 0.99, "center": true}, "inbound_nodes": [[["conv2d_78", 0, 0, {}]]], "name": "batch_normalization_79"}, {"class_name": "BatchNormalization", "config": {"beta_constraint": null, "gamma_initializer": {"class_name": "Ones", "config": {}}, "moving_mean_initializer": {"class_name": "Zeros", "config": {}}, "name": "batch_normalization_139", "epsilon": 0.001, "trainable": true, "moving_variance_initializer": {"class_name": "Ones", "config": {}}, "beta_initializer": {"class_name": "Zeros", "config": {}}, "scale": true, "axis": -1, "gamma_constraint": null, "gamma_regularizer": null, "beta_regularizer": null, "momentum": 0.99, "center": true}, "inbound_nodes": [[["conv2d_134", 0, 0, {}]]], "name": "batch_normalization_139"}, {"class_name": "Concatenate", "config": {"trainable": true, "name": "concatenate_68", "axis": -1}, "inbound_nodes": [[["dropout_5", 0, 0, {}], ["batch_normalization_79", 0, 0, {}]]], "name": "concatenate_68"}, {"class_name": "Concatenate", "config": {"trainable": true, "name": "concatenate_121", "axis": -1}, "inbound_nodes": [[["dropout_9", 0, 0, {}], ["batch_normalization_139", 0, 0, {}]]], "name": "concatenate_121"}, {"class_name": "Conv2D", "config": {"kernel_constraint": null, "kernel_initializer": {"class_name": "VarianceScaling", "config": {"distribution": "uniform", "scale": 1.0, "seed": null, "mode": "fan_avg"}}, "name": "conv2d_79", "bias_regularizer": null, "bias_constraint": null, "activation": "relu", "trainable": true, "data_format": "channels_last", "padding": "same", "strides": [1, 1], "dilation_rate": [1, 1], "kernel_regularizer": {"class_name": "L1L2", "config": {"l2": 0.00019999999494757503, "l1": 0.0}}, "filters": 12, "bias_initializer": {"class_name": "Zeros", "config": {}}, "use_bias": true, "activity_regularizer": null, "kernel_size": [3, 3]}, "inbound_nodes": [[["concatenate_68", 0, 0, {}]]], "name": "conv2d_79"}, {"class_name": "Conv2D", "config": {"kernel_constraint": null, "kernel_initializer": {"class_name": "VarianceScaling", "config": {"distribution": "uniform", "scale": 1.0, "seed": null, "mode": "fan_avg"}}, "name": "conv2d_135", "bias_regularizer": null, "bias_constraint": null, "activation": "relu", "trainable": true, "data_format": "channels_last", "padding": "same", "strides": [1, 1], "dilation_rate": [1, 1], "kernel_regularizer": {"class_name": "L1L2", "config": {"l2": 0.00019999999494757503, "l1": 0.0}}, "filters": 12, "bias_initializer": {"class_name": "Zeros", "config": {}}, "use_bias": true, "activity_regularizer": null, "kernel_size": [3, 3]}, "inbound_nodes": [[["concatenate_121", 0, 0, {}]]], "name": "conv2d_135"}, {"class_name": "BatchNormalization", "config": {"beta_constraint": null, "gamma_initializer": {"class_name": "Ones", "config": {}}, "moving_mean_initializer": {"class_name": "Zeros", "config": {}}, "name": "batch_normalization_80", "epsilon": 0.001, "trainable": true, "moving_variance_initializer": {"class_name": "Ones", "config": {}}, "beta_initializer": {"class_name": "Zeros", "config": {}}, "scale": true, "axis": -1, "gamma_constraint": null, "gamma_regularizer": null, "beta_regularizer": null, "momentum": 0.99, "center": true}, "inbound_nodes": [[["conv2d_79", 0, 0, {}]]], "name": "batch_normalization_80"}, {"class_name": "BatchNormalization", "config": {"beta_constraint": null, "gamma_initializer": {"class_name": "Ones", "config": {}}, "moving_mean_initializer": {"class_name": "Zeros", "config": {}}, "name": "batch_normalization_140", "epsilon": 0.001, "trainable": true, "moving_variance_initializer": {"class_name": "Ones", "config": {}}, "beta_initializer": {"class_name": "Zeros", "config": {}}, "scale": true, "axis": -1, "gamma_constraint": null, "gamma_regularizer": null, "beta_regularizer": null, "momentum": 0.99, "center": true}, "inbound_nodes": [[["conv2d_135", 0, 0, {}]]], "name": "batch_normalization_140"}, {"class_name": "Concatenate", "config": {"trainable": true, "name": "concatenate_69", "axis": -1}, "inbound_nodes": [[["dropout_5", 0, 0, {}], ["batch_normalization_79", 0, 0, {}], ["batch_normalization_80", 0, 0, {}]]], "name": "concatenate_69"}, {"class_name": "Concatenate", "config": {"trainable": true, "name": "concatenate_122", "axis": -1}, "inbound_nodes": [[["dropout_9", 0, 0, {}], ["batch_normalization_139", 0, 0, {}], ["batch_normalization_140", 0, 0, {}]]], "name": "concatenate_122"}, {"class_name": "Conv2D", "config": {"kernel_constraint": null, "kernel_initializer": {"class_name": "VarianceScaling", "config": {"distribution": "uniform", "scale": 1.0, "seed": null, "mode": "fan_avg"}}, "name": "conv2d_80", "bias_regularizer": null, "bias_constraint": null, "activation": "relu", "trainable": true, "data_format": "channels_last", "padding": "same", "strides": [1, 1], "dilation_rate": [1, 1], "kernel_regularizer": {"class_name": "L1L2", "config": {"l2": 0.00019999999494757503, "l1": 0.0}}, "filters": 12, "bias_initializer": {"class_name": "Zeros", "config": {}}, "use_bias": true, "activity_regularizer": null, "kernel_size": [3, 3]}, "inbound_nodes": [[["concatenate_69", 0, 0, {}]]], "name": "conv2d_80"}, {"class_name": "Conv2D", "config": {"kernel_constraint": null, "kernel_initializer": {"class_name": "VarianceScaling", "config": {"distribution": "uniform", "scale": 1.0, "seed": null, "mode": "fan_avg"}}, "name": "conv2d_136", "bias_regularizer": null, "bias_constraint": null, "activation": "relu", "trainable": true, "data_format": "channels_last", "padding": "same", "strides": [1, 1], "dilation_rate": [1, 1], "kernel_regularizer": {"class_name": "L1L2", "config": {"l2": 0.00019999999494757503, "l1": 0.0}}, "filters": 12, "bias_initializer": {"class_name": "Zeros", "config": {}}, "use_bias": true, "activity_regularizer": null, "kernel_size": [3, 3]}, "inbound_nodes": [[["concatenate_122", 0, 0, {}]]], "name": "conv2d_136"}, {"class_name": "BatchNormalization", "config": {"beta_constraint": null, "gamma_initializer": {"class_name": "Ones", "config": {}}, "moving_mean_initializer": {"class_name": "Zeros", "config": {}}, "name": "batch_normalization_81", "epsilon": 0.001, "trainable": true, "moving_variance_initializer": {"class_name": "Ones", "config": {}}, "beta_initializer": {"class_name": "Zeros", "config": {}}, "scale": true, "axis": -1, "gamma_constraint": null, "gamma_regularizer": null, "beta_regularizer": null, "momentum": 0.99, "center": true}, "inbound_nodes": [[["conv2d_80", 0, 0, {}]]], "name": "batch_normalization_81"}, {"class_name": "BatchNormalization", "config": {"beta_constraint": null, "gamma_initializer": {"class_name": "Ones", "config": {}}, "moving_mean_initializer": {"class_name": "Zeros", "config": {}}, "name": "batch_normalization_141", "epsilon": 0.001, "trainable": true, "moving_variance_initializer": {"class_name": "Ones", "config": {}}, "beta_initializer": {"class_name": "Zeros", "config": {}}, "scale": true, "axis": -1, "gamma_constraint": null, "gamma_regularizer": null, "beta_regularizer": null, "momentum": 0.99, "center": true}, "inbound_nodes": [[["conv2d_136", 0, 0, {}]]], "name": "batch_normalization_141"}, {"class_name": "Concatenate", "config": {"trainable": true, "name": "concatenate_70", "axis": -1}, "inbound_nodes": [[["dropout_5", 0, 0, {}], ["batch_normalization_79", 0, 0, {}], ["batch_normalization_80", 0, 0, {}], ["batch_normalization_81", 0, 0, {}]]], "name": "concatenate_70"}, {"class_name": "Concatenate", "config": {"trainable": true, "name": "concatenate_123", "axis": -1}, "inbound_nodes": [[["dropout_9", 0, 0, {}], ["batch_normalization_139", 0, 0, {}], ["batch_normalization_140", 0, 0, {}], ["batch_normalization_141", 0, 0, {}]]], "name": "concatenate_123"}, {"class_name": "Conv2D", "config": {"kernel_constraint": null, "kernel_initializer": {"class_name": "VarianceScaling", "config": {"distribution": "uniform", "scale": 1.0, "seed": null, "mode": "fan_avg"}}, "name": "conv2d_81", "bias_regularizer": null, "bias_constraint": null, "activation": "relu", "trainable": true, "data_format": "channels_last", "padding": "same", "strides": [1, 1], "dilation_rate": [1, 1], "kernel_regularizer": {"class_name": "L1L2", "config": {"l2": 0.00019999999494757503, "l1": 0.0}}, "filters": 12, "bias_initializer": {"class_name": "Zeros", "config": {}}, "use_bias": true, "activity_regularizer": null, "kernel_size": [3, 3]}, "inbound_nodes": [[["concatenate_70", 0, 0, {}]]], "name": "conv2d_81"}, {"class_name": "Conv2D", "config": {"kernel_constraint": null, "kernel_initializer": {"class_name": "VarianceScaling", "config": {"distribution": "uniform", "scale": 1.0, "seed": null, "mode": "fan_avg"}}, "name": "conv2d_137", "bias_regularizer": null, "bias_constraint": null, "activation": "relu", "trainable": true, "data_format": "channels_last", "padding": "same", "strides": [1, 1], "dilation_rate": [1, 1], "kernel_regularizer": {"class_name": "L1L2", "config": {"l2": 0.00019999999494757503, "l1": 0.0}}, "filters": 12, "bias_initializer": {"class_name": "Zeros", "config": {}}, "use_bias": true, "activity_regularizer": null, "kernel_size": [3, 3]}, "inbound_nodes": [[["concatenate_123", 0,…
zation_309", 0, 0, {}], ["batch_normalization_310", 0, 0, {}], ["batch_normalization_311", 0, 0, {}]]], "name": "concatenate_281"}, {"class_name": "Conv2D", "config": {"kernel_constraint": null, "kernel_initializer": {"class_name": "VarianceScaling", "config": {"distribution": "uniform", "scale": 1.0, "seed": null, "mode": "fan_avg"}}, "name": "conv2d_302", "bias_regularizer": null, "bias_constraint": null, "activation": "relu", "trainable": true, "data_format": "channels_last", "padding": "same", "strides": [1, 1], "dilation_rate": [1, 1], "kernel_regularizer": {"class_name": "L1L2", "config": {"l2": 0.00019999999494757503, "l1": 0.0}}, "filters": 12, "bias_initializer": {"class_name": "Zeros", "config": {}}, "use_bias": true, "activity_regularizer": null, "kernel_size": [3, 3]}, "inbound_nodes": [[["concatenate_281", 0, 0, {}]]], "name": "conv2d_302"}, {"class_name": "BatchNormalization", "config": {"beta_constraint": null, "gamma_initializer": {"class_name": "Ones", "config": {}}, "moving_mean_initializer": {"class_name": "Zeros", "config": {}}, "name": "batch_normalization_312", "epsilon": 0.001, "trainable": true, "moving_variance_initializer": {"class_name": "Ones", "config": {}}, "beta_initializer": {"class_name": "Zeros", "config": {}}, "scale": true, "axis": -1, "gamma_constraint": null, "gamma_regularizer": null, "beta_regularizer": null, "momentum": 0.99, "center": true}, "inbound_nodes": [[["conv2d_302", 0, 0, {}]]], "name": "batch_normalization_312"}, {"class_name": "Concatenate", "config": {"trainable": true, "name": "concatenate_282", "axis": -1}, "inbound_nodes": [[["dropout_18", 0, 0, {}], ["batch_normalization_298", 0, 0, {}], ["batch_normalization_299", 0, 0, {}], ["batch_normalization_300", 0, 0, {}], ["batch_normalization_301", 0, 0, {}], ["batch_normalization_302", 0, 0, {}], ["batch_normalization_303", 0, 0, {}], ["batch_normalization_304", 0, 0, {}], ["batch_normalization_305", 0, 0, {}], ["batch_normalization_306", 0, 0, {}], ["batch_normalization_307", 0, 0, {}], ["batch_normalization_308", 0, 0, {}], ["batch_normalization_309", 0, 0, {}], ["batch_normalization_310", 0, 0, {}], ["batch_normalization_311", 0, 0, {}], ["batch_normalization_312", 0, 0, {}]]], "name": "concatenate_282"}, {"class_name": "Conv2D", "config": {"kernel_constraint": null, "kernel_initializer": {"class_name": "VarianceScaling", "config": {"distribution": "uniform", "scale": 1.0, "seed": null, "mode": "fan_avg"}}, "name": "conv2d_303", "bias_regularizer": null, "bias_constraint": null, "activation": "relu", "trainable": true, "data_format": "channels_last", "padding": "same", "strides": [1, 1], "dilation_rate": [1, 1], "kernel_regularizer": {"class_name": "L1L2", "config": {"l2": 0.00019999999494757503, "l1": 0.0}}, "filters": 12, "bias_initializer": {"class_name": "Zeros", "config": {}}, "use_bias": true, "activity_regularizer": null, "kernel_size": [3, 3]}, "inbound_nodes": [[["concatenate_282", 0, 0, {}]]], "name": "conv2d_303"}, {"class_name": "BatchNormalization", "config": {"beta_constraint": null, "gamma_initializer": {"class_name": "Ones", "config": {}}, "moving_mean_initializer": {"class_name": "Zeros", "config": {}}, "name": "batch_normalization_313", "epsilon": 0.001, "trainable": true, "moving_variance_initializer": {"class_name": "Ones", "config": {}}, "beta_initializer": {"class_name": "Zeros", "config": {}}, "scale": true, "axis": -1, "gamma_constraint": null, "gamma_regularizer": null, "beta_regularizer": null, "momentum": 0.99, "center": true}, "inbound_nodes": [[["conv2d_303", 0, 0, {}]]], "name": "batch_normalization_313"}, {"class_name": "Concatenate", "config": {"trainable": true, "name": "concatenate_283", "axis": -1}, "inbound_nodes": [[["dropout_18", 0, 0, {}], ["batch_normalization_298", 0, 0, {}], ["batch_normalization_299", 0, 0, {}], ["batch_normalization_300", 0, 0, {}], ["batch_normalization_301", 0, 0, {}], ["batch_normalization_302", 0, 0, {}], ["batch_normalization_303", 0, 0, {}], ["batch_normalization_304", 0, 0, {}], ["batch_normalization_305", 0, 0, {}], ["batch_normalization_306", 0, 0, {}], ["batch_normalization_307", 0, 0, {}], ["batch_normalization_308", 0, 0, {}], ["batch_normalization_309", 0, 0, {}], ["batch_normalization_310", 0, 0, {}], ["batch_normalization_311", 0, 0, {}], ["batch_normalization_312", 0, 0, {}], ["batch_normalization_313", 0, 0, {}]]], "name": "concatenate_283"}, {"class_name": "Conv2D", "config": {"kernel_constraint": null, "kernel_initializer": {"class_name": "VarianceScaling", "config": {"distribution": "uniform", "scale": 1.0, "seed": null, "mode": "fan_avg"}}, "name": "conv2d_304", "bias_regularizer": null, "bias_constraint": null, "activation": "relu", "trainable": true, "data_format": "channels_last", "padding": "same", "strides": [1, 1], "dilation_rate": [1, 1], "kernel_regularizer": {"class_name": "L1L2", "config": {"l2": 0.00019999999494757503, "l1": 0.0}}, "filters": 12, "bias_initializer": {"class_name": "Zeros", "config": {}}, "use_bias": true, "activity_regularizer": null, "kernel_size": [3, 3]}, "inbound_nodes": [[["concatenate_283", 0, 0, {}]]], "name": "conv2d_304"}, {"class_name": "BatchNormalization", "config": {"beta_constraint": null, "gamma_initializer": {"class_name": "Ones", "config": {}}, "moving_mean_initializer": {"class_name": "Zeros", "config": {}}, "name": "batch_normalization_314", "epsilon": 0.001, "trainable": true, "moving_variance_initializer": {"class_name": "Ones", "config": {}}, "beta_initializer": {"class_name": "Zeros", "config": {}}, "scale": true, "axis": -1, "gamma_constraint": null, "gamma_regularizer": null, "beta_regularizer": null, "momentum": 0.99, "center": true}, "inbound_nodes": [[["conv2d_304", 0, 0, {}]]], "name": "batch_normalization_314"}, {"class_name": "Concatenate", "config": {"trainable": true, "name": "concatenate_284", "axis": -1}, "inbound_nodes": [[["dropout_18", 0, 0, {}], ["batch_normalization_298", 0, 0, {}], ["batch_normalization_299", 0, 0, {}], ["batch_normalization_300", 0, 0, {}], ["batch_normalization_301", 0, 0, {}], ["batch_normalization_302", 0, 0, {}], ["batch_normalization_303", 0, 0, {}], ["batch_normalization_304", 0, 0, {}], ["batch_normalization_305", 0, 0, {}], ["batch_normalization_306", 0, 0, {}], ["batch_normalization_307", 0, 0, {}], ["batch_normalization_308", 0, 0, {}], ["batch_normalization_309", 0, 0, {}], ["batch_normalization_310", 0, 0, {}], ["batch_normalization_311", 0, 0, {}], ["batch_normalization_312", 0, 0, {}], ["batch_normalization_313", 0, 0, {}], ["batch_normalization_314", 0, 0, {}]]], "name": "concatenate_284"}, {"class_name": "Conv2D", "config": {"kernel_constraint": null, "kernel_initializer": {"class_name": "VarianceScaling", "config": {"distribution": "uniform", "scale": 1.0, "seed": null, "mode": "fan_avg"}}, "name": "conv2d_305", "bias_regularizer": null, "bias_constraint": null, "activation": "relu", "trainable": true, "data_format": "channels_last", "padding": "same", "strides": [1, 1], "dilation_rate": [1, 1], "kernel_regularizer": {"class_name": "L1L2", "config": {"l2": 0.00019999999494757503, "l1": 0.0}}, "filters": 12, "bias_initializer": {"class_name": "Zeros", "config": {}}, "use_bias": true, "activity_regularizer": null, "kernel_size": [3, 3]}, "inbound_nodes": [[["concatenate_284", 0, 0, {}]]], "name": "conv2d_305"}, {"class_name": "BatchNormalization", "config": {"beta_constraint": null, "gamma_initializer": {"class_name": "Ones", "config": {}}, "moving_mean_initializer": {"class_name": "Zeros", "config": {}}, "name": "batch_normalization_315", "epsilon": 0.001, "trainable": true, "moving_variance_initializer": {"class_name": "Ones", "config": {}}, "beta_initializer": {"class_name": "Zeros", "config": {}}, "scale": true, "axis": -1, "gamma_constraint": null, "gamma_regularizer": null, "beta_regularizer": null, "momentum": 0.99, "center": true}, "inbound_nodes": [[["conv2d_305", 0, 0, {}]]], "name": "batch_normalization_315"}, {"class_name": "Concatenate", "config": {"trainable": true, "name": "concatenate_285", "axis": -1}, "inbound_nodes": [[["dropout_18", 0, 0, {}], ["batch_normalization_298", 0, 0, {}], ["batch_normalization_299", 0, 0, {}], ["batch_normalization_300", 0, 0, {}], ["batch_normalization_301", 0, 0, {}], ["batch_normalization_302", 0, 0, {}], ["batch_normalization_303", 0, 0, {}], ["batch_normalization_304", 0, 0, {}], ["batch_normalization_305", 0, 0, {}], ["batch_normalization_306", 0, 0, {}], ["batch_normalization_307", 0, 0, {}], ["batch_normalization_308", 0, 0, {}], ["batch_normalization_309", 0, 0, {}], ["batch_normalization_310", 0, 0, {}], ["batch_normalization_311", 0, 0, {}], ["batch_normalization_312", 0, 0, {}], ["batch_normalization_313", 0, 0, {}], ["batch_normalization_314", 0, 0, {}], ["batch_normalization_315", 0, 0, {}]]], "name": "concatenate_285"}, {"class_name": "Conv2D", "config": {"kernel_constraint": null, "kernel_initializer": {"class_name": "VarianceScaling", "config": {"distribution": "uniform", "scale": 1.0, "seed": null, "mode": "fan_avg"}}, "name": "conv2d_306", "bias_regularizer": null, "bias_constraint": null, "activation": "relu", "trainable": true, "data_format": "channels_last", "padding": "same", "strides": [1, 1], "dilation_rate": [1, 1], "kernel_regularizer": {"class_name": "L1L2", "config": {"l2": 0.00019999999494757503, "l1": 0.0}}, "filters": 12, "bias_initializer": {"class_name": "Zeros", "config": {}}, "use_bias": true, "activity_regularizer": null, "kernel_size": [3, 3]}, "inbound_nodes": [[["concatenate_285", 0, 0, {}]]], "name": "conv2d_306"}, {"class_name": "BatchNormalization", "config": {"beta_constraint": null, "gamma_initializer": {"class_name": "Ones", "config": {}}, "moving_mean_initializer": {"class_name": "Zeros", "config": {}}, "name": "batch_normalization_316", "epsilon": 0.001, "trainable": true, "moving_variance_initializer": {"class_name": "Ones", "config": {}}, "beta_initializer": {"class_name": "Zeros", "config": {}}, "scale": true, "axis": -1, "gamma_constraint": null, "gamma_regularizer": null, "beta_regularizer": null, "momentum": 0.99, "center": true}, "inbound_nodes": [[["conv2d_306", 0, 0, {}]]], "name": "batch_normalization_316"}, {"class_name": "Concatenate", "config": {"trainable": true, "name": "concatenate_286", "axis": -1}, "inbound_nodes": [[["dropout_18", 0, 0, {}], ["batch_normalization_298", 0, 0, {}], ["batch_normalization_299", 0, 0, {}], ["batch_normalization_300", 0, 0, {}], ["batch_normalization_301", 0, 0, {}], ["batch_normalization_302", 0, 0, {}], ["batch_normalization_303", 0, 0, {}], ["batch_normalization_304", 0, 0, {}], ["batch_normalization_305", 0, 0, {}], ["batch_normalization_306", 0, 0, {}], ["batch_normalization_307", 0, 0, {}], ["batch_normalization_308", 0, 0, {}], ["batch_normalization_309", 0, 0, {}], ["batch_normalization_310", 0, 0, {}], ["batch_normalization_311", 0, 0, {}], ["batch_normalization_312", 0, 0, {}], ["batch_normalization_313", 0, 0, {}], ["batch_normalization_314", 0, 0, {}], ["batch_normalization_315", 0, 0, {}], ["batch_normalization_316", 0, 0, {}]]], "name": "concatenate_286"}, {"class_name": "Conv2D", "config": {"kernel_constraint": null, "kernel_initializer": {"class_name": "VarianceScaling", "config": {"distribution": "uniform", "scale": 1.0, "seed": null, "mode": "fan_avg"}}, "name": "conv2d_307", "bias_regularizer": null, "bias_constraint": null, "activation": "relu", "trainable": true, "data_format": "channels_last", "padding": "same", "strides": [1, 1], "dilation_rate": [1, 1], "kernel_regularizer": {"class_name": "L1L2", "config": {"l2": 0.00019999999494757503, "l1": 0.0}}, "filters": 12, "bias_initializer": {"class_name": "Zeros", "config": {}}, "use_bias": true, "activity_regularizer": null, "kernel_size": [3, 3]}, "inbound_nodes": [[["concatenate_286", 0, 0, {}]]], "name": "conv2d_307"}, {"class_name": "BatchNormalization", "config": {"beta_constraint": null, "gamma_initializer": {"class_name": "Ones", "config": {}}, "moving_mean_initializer": {"class_name": "Zeros", "config": {}}, "name": "batch_normalization_317", "epsilon": 0.001, "trainable": true, "moving_variance_initializer": {"class_name": "Ones", "config": {}}, "beta_initializer": {"class_name": "Zeros", "config": {}}, "scale": true, "axis": -1, "gamma_constraint": null, "gamma_regularizer": null, "beta_regularizer": null, "momentum": 0.99, "center": true}, "inbound_nodes": [[["conv2d_307", 0, 0, {}]]], "name": "batch_normalization_317"}, {"class_name": "Concatenate", "config": {"trainable": true, "name": "concatenate_287", "axis": -1}, "inbound_nodes": [[["dropout_18", 0, 0, {}], ["batch_normalization_298", 0, 0, {}], ["batch_normalization_299", 0, 0, {}], ["batch_normalization_300", 0, 0, {}], ["batch_normalization_301", 0, 0, {}], ["batch_normalization_302", 0, 0, {}], ["batch_normalization_303", 0, 0, {}], ["batch_normalization_304", 0, 0, {}], ["batch_normalization_305", 0, 0, {}], ["batch_normalization_306", 0, 0, {}], ["batch_normalization_307", 0, 0, {}], ["batch_normalization_308", 0, 0, {}], ["batch_normalization_309", 0, 0, {}], ["batch_normalization_310", 0, 0, {}], ["batch_normalization_311", 0, 0, {}], ["batch_normalization_312", 0, 0, {}], ["batch_normalization_313", 0, 0, {}], ["batch_normalization_314", 0, 0, {}], ["batch_normalization_315", 0, 0, {}], ["batch_normalization_316", 0, 0, {}], ["batch_normalization_317", 0, 0, {}]]], "name": "concatenate_287"}, {"class_name": "Conv2D", "config": {"kernel_constraint": null, "kernel_initializer": {"class_name": "VarianceScaling", "config": {"distribution": "uniform", "scale": 1.0, "seed": null, "mode": "fan_avg"}}, "name": "conv2d_308", "bias_regularizer": null, "bias_constraint": null, "activation": "relu", "trainable": true, "data_format": "channels_last", "padding": "same", "strides": [1, 1], "dilation_rate": [1, 1], "kernel_regularizer": {"class_name": "L1L2", "config": {"l2": 0.00019999999494757503, "l1": 0.0}}, "filters": 128, "bias_initializer": {"class_name": "Zeros", "config": {}}, "use_bias": true, "activity_regularizer": null, "kernel_size": [3, 3]}, "inbound_nodes": [[["concatenate_287", 0, 0, {}]]], "name": "conv2d_308"}, {"class_name": "BatchNormalization", "config": {"beta_constraint": null, "gamma_initializer": {"class_name": "Ones", "config": {}}, "moving_mean_initializer": {"class_name": "Zeros", "config": {}}, "name": "batch_normalization_318", "epsilon": 0.001, "trainable": true, "moving_variance_initializer": {"class_name": "Ones", "config": {}}, "beta_initializer": {"class_name": "Zeros", "config": {}}, "scale": true, "axis": -1, "gamma_constraint": null, "gamma_regularizer": null, "beta_regularizer": null, "momentum": 0.99, "center": true}, "inbound_nodes": [[["conv2d_308", 0, 0, {}]]], "name": "batch_normalization_318"}, {"class_name": "Conv2DTranspose", "config": {"kernel_constraint": null, "kernel_initializer": {"class_name": "VarianceScaling", "config": {"distribution": "uniform", "scale": 1.0, "seed": null, "mode": "fan_avg"}}, "name": "conv2d_transpose_21", "bias_regularizer": null, "bias_constraint": null, "activation": "linear", "trainable": true, "data_format": "channels_last", "padding": "same", "strides": [2, 2], "kernel_regularizer": null, "filters": 12, "bias_initializer": {"class_name": "Zeros", "config": {}}, "use_bias": true, "activity_regularizer": null, "kernel_size": [2, 2]}, "inbound_nodes": [[["batch_normalization_318", 0, 0, {}]]], "name": "conv2d_transpose_21"}, {"class_name": "Concatenate", "config": {"trainable": true, "name": "xxup8", "axis": 3}, "inbound_nodes": [[["conv2d_transpose_21", 0, 0, {}], ["batch_normalization_211", 0, 0, {}]]], "name": "xxup8"}, {"class_name": "Dropout", "config": {"rate": 0.3, "noise_shape": null, "trainable": true, "seed": null, "name": "dropout_19"}, "inbound_nodes": [[["xxup8", 0, 0, {}]]], "name": "dropout_19"}, {"class_name": "Conv2D", "config": {"kernel_constraint": null, "kernel_initializer": {"class_name": "VarianceScaling", "config": {"distribution": "uniform", "scale": 1.0, "seed": null, "mode": "fan_avg"}}, "name": "conv2d_309", "bias_regularizer": null, "bias_constraint": null, "activation": "relu", "trainable": true, "data_format": "channels_last", "padding": "same", "strides": [1, 1], "dilation_rate": [1, 1], "kernel_regularizer": {"class_name": "L1L2", "config": {"l2": 0.00019999999494757503, "l1": 0.0}}, "filters": 12, "bias_initializer": {"class_name": "Zeros", "config": {}}, "use_bias": true, "activity_regularizer": null, "kernel_size": [3, 3]}, "inbound_nodes": [[["dropout_19", 0, 0, {}]]], "name": "conv2d_309"}, {"class_name": "BatchNormalization", "config": {"beta_constraint": null, "gamma_initializer": {"class_name": "Ones", "config": {}}, "moving_mean_initializer": {"class_name": "Zeros", "config": {}}, "name": "batch_normalization_320", "epsilon": 0.001, "trainable": true, "moving_variance_initializer": {"class_name": "Ones", "config": {}}, "beta_initializer": {"class_name": "Zeros", "config": {}}, "scale": true, "axis": -1, "gamma_constraint": null, "gamma_regularizer": null, "beta_regularizer": null, "momentum": 0.99, "center": true}, "inbound_nodes": [[["conv2d_309", 0, 0, {}]]], "name": "batch_normalization_320"}, {"class_name": "Concatenate", "config": {"trainable": true, "name": "concatenate_288", "axis": -1}, "inbound_nodes": [[["dropout_19", 0, 0, {}], ["batch_normalization_320", 0, 0, {}]]], "name": "concatenate_288"}, {"class_name": "Conv2D", "config": {"kernel_constraint": null, "kernel_initializer": {"class_name": "VarianceScaling", "config": {"distribution": "uniform", "scale": 1.0, "seed": null, "mode": "fan_avg"}}, "name": "conv2d_310", "bias_regularizer": null, "bias_constraint": null, "activation": "relu", "trainable": true, "data_format": "channels_last", "padding": "same", "strides": [1, 1], "dilation_rate": [1, 1], "kernel_regularizer": {"class_name": "L1L2", "config": {"l2": 0.00019999999494757503, "l1": 0.0}}, "filters": 12, "bias_initializer": {"class_name": "Zeros", "config": {}}, "use_bias": true, "activity_regularizer": null, "kernel_size": [3, 3]}, "inbound_nodes": [[["concatenate_288", 0, 0, {}]]], "name": "conv2d_310"}, {"class_name": "BatchNormalization", "config": {"beta_constraint": null, "gamma_initializer": {"class_name": "Ones", "config": {}}, "moving_mean_initializer": {"class_name": "Zeros", "config": {}}, "name": "batch_normalization_321", "epsilon": 0.001, "trainable": true, "moving_variance_initializer": {"class_name": "Ones", "config": {}}, "beta_initializer": {"class_name": "Zeros", "config": {}}, "scale": true, "axis": -1, "gamma_constraint": null, "gamma_regularizer": null, "beta_regularizer": null, "momentum": 0.99, "center": true}, "inbound_nodes": [[["conv2d_310", 0, 0, {}]]], "name": "batch_normalization_321"}, {"class_name": "Concatenate", "config": {"trainable": true, "name": "concatenate_289", "axis": -1}, "inbound_nodes": [[["dropout_19", 0, 0, {}], ["batch_normalization_320", 0, 0, {}], ["batch_normalization_321", 0, 0, {}]]], "name": "concatenate_289"}, {"class_name": "Conv2D", "config": {"kernel_constraint": null, "kernel_initializer": {"class_name": "VarianceScaling", "config": {"distribution": "uniform", "scale": 1.0, "seed": null, "mode": "fan_avg"}}, "name": "conv2d_311", "bias_regularizer": null, "bias_constraint": null, "activation": "relu", "trainable": true, "data_format": "channels_last", "padding": "same", "strides": [1, 1], "dilation_rate": [1, 1], "kernel_regularizer": {"class_name": "L1L2", "config": {"l2": 0.00019999999494757503, "l1": 0.0}}, "filters": 12, "bias_initializer": {"class_name": "Zeros", "config": {}}, "use_bias": true, "activity_regularizer": null, "kernel_size": [3, 3]}, "inbound_nodes": [[["concatenate_289", 0, 0, {}]]], "name": "conv2d_311"}, {"class_name": "BatchNormalization", "config": {"beta_constraint": null, "gamma_initializer": {"class_name": "Ones", "config": {}}, "moving_mean_initializer": {"class_name": "Zeros", "config": {}}, "name": "batch_normalization_322", "epsilon": 0.001, "trainable": true, "moving_variance_initializer": {"class_name": "Ones", "config": {}}, "beta_initializer": {"class_name": "Zeros", "config": {}}, "scale": true, "axis": -1, "gamma_constraint": null, "gamma_regularizer": null, "beta_regularizer": null, "momentum": 0.99, "center": true}, "inbound_nodes": [[["conv2d_311", 0, 0, {}]]], "name": "batch_normalization_322"}, {"class_name": "Concatenate", "config": {"trainable": true, "name": "concatenate_290", "axis": -1}, "inbound_nodes": [[["dropout_19", 0, 0, {}], ["batch_normalization_320", 0, 0, {}], ["batch_normalization_321", 0, 0, {}], ["batch_normalization_322", 0, 0, {}]]], "name": "concatenate_290"}, {"class_name": "Conv2D", "config": {"kernel_constraint": null, "kernel_initializer": {"class_name": "VarianceScaling", "config": {"distribution": "uniform", "scale": 1.0, "seed": null, "mode": "fan_avg"}}, "name": "conv2d_312", "bias_regularizer": null, "bias_constraint": null, "activation": "relu", "trainable": true, "data_format": "channels_last", "padding": "same", "strides": [1, 1], "dilation_rate": [1, 1], "kernel_regularizer": {"class_name": "L1L2", "config": {"l2": 0.00019999999494757503, "l1": 0.0}}, "filters": 12, "bias_initializer": {"class_name": "Zeros", "config": {}}, "use_bias": true, "activity_regularizer": null, "kernel_size": [3, 3]}, "inbound_nodes": [[["concatenate_290", 0, 0, {}]]], "name": "conv2d_312"}, {"class_name": "BatchNormalization", "config": {"beta_constraint": null, "gamma_initializer": {"class_name": "Ones", "config": {}}, "moving_mean_initializer": {"class_name": "Zeros", "config": {}}, "name": "batch_normalization_323", "epsilon": 0.001, "trainable": true, "moving_variance_initializer": {"class_name": "Ones", "config": {}}, "beta_initializer": {"class_name": "Zeros", "config": {}}, "scale": true, "axis": -1, "gamma_constraint": null, "gamma_regularizer": null, "beta_regularizer": null, "momentum": 0.99, "center": true}, "inbound_nodes": [[["conv2d_312", 0, 0, {}]]], "name": "batch_normalization_323"}, {"class_name": "Concatenate", "config": {"trainable": true, "name": "concatenate_291", "axis": -1}, "inbound_nodes": [[["dropout_19", 0, 0, {}], ["batch_normalization_320", 0, 0, {}], ["batch_normalization_321", 0, 0, {}], ["batch_normalization_322", 0, 0, {}], ["batch_normalization_323", 0, 0, {}]]], "name": "concatenate_291"}, {"class_name": "Conv2D", "config": {"kernel_constraint": null, "kernel_initializer": {"class_name": "VarianceScaling", "config": {"distribution": "uniform", "scale": 1.0, "seed": null, "mode": "fan_avg"}}, "name": "conv2d_313", "bias_regularizer": null, "bias_constraint": null, "activation": "relu", "trainable": true, "data_format": "channels_last", "padding": "same", "strides": [1, 1], "dilation_rate": [1, 1], "kernel_regularizer": {"class_name": "L1L2", "config": {"l2": 0.00019999999494757503, "l1": 0.0}}, "filters": 12, "bias_initializer": {"class_name": "Zeros", "config": {}}, "use_bias": true, "activity_regularizer": null, "kernel_size": [3, 3]}, "inbound_nodes": [[["concatenate_291", 0, 0, {}]]], "name": "conv2d_313"}, {"class_name": "BatchNormalization", "config": {"beta_constraint": null, "gamma_initializer": {"class_name": "Ones", "config": {}}, "moving_mean_initializer": {"class_name": "Zeros", "config": {}}, "name": "batch_normalization_324", "epsilon": 0.001, "trainable": true, "moving_variance_initializer": {"class_name": "Ones", "config": {}}, "beta_initializer": {"class_name": "Zeros", "config": {}}, "scale": true, "axis": -1, "gamma_constraint": null, "gamma_regularizer": null, "beta_regularizer": null, "momentum": 0.99, "center": true}, "inbound_nodes": [[["conv2d_313", 0, 0, {}]]], "name": "batch_normalization_324"}, {"class_name": "Concatenate", "config": {"trainable": true, "name": "concatenate_292", "axis": -1}, "inbound_nodes": [[["dropout_19", 0, 0, {}], ["batch_normalization_320", 0, 0, {}], ["batch_normalization_321", 0, 0, {}], ["batch_normalization_322", 0, 0, {}], ["batch_normalization_323", 0, 0, {}], ["batch_normalization_324", 0, 0, {}]]], "name": "concatenate_292"}, {"class_name": "Conv2D", "config": {"kernel_constraint": null, "kernel_initializer": {"class_name": "VarianceScaling", "config": {"distribution": "uniform", "scale": 1.0, "seed": null, "mode": "fan_avg"}}, "name": "conv2d_314", "bias_regularizer": null, "bias_constraint": null, "activation": "relu", "trainable": true, "data_format": "channels_last", "padding": "same", "strides": [1, 1], "dilation_rate": [1, 1], "kernel_regularizer": {"class_name": "L1L2", "config": {"l2": 0.00019999999494757503, "l1": 0.0}}, "filters": 12, "bias_initializer": {"class_name": "Zeros", "config": {}}, "use_bias": true, "activity_regularizer": null, "kernel_size": [3, 3]}, "inbound_nodes": [[["concatenate_292", 0, 0, {}]]], "name": "conv2d_314"}, {"class_name": "BatchNormalization", "config": {"beta_constraint": null, "gamma_initializer": {"class_name": "Ones", "config": {}}, "moving_mean_initializer": {"class_name": "Zeros", "config": {}}, "name": "batch_normalization_325", "epsilon": 0.001, "trainable": true, "moving_variance_initializer": {"class_name": "Ones", "config": {}}, "beta_initializer": {"class_name": "Zeros", "config": {}}, "scale": true, "axis": -1, "gamma_constraint": null, "gamma_regularizer": null, "beta_regularizer": null, "momentum": 0.99, "center": true}, "inbound_nodes": [[["conv2d_314", 0, 0, {}]]], "name": "batch_normalization_325"}, {"class_name": "Concatenate", "config": {"trainable": true, "name": "concatenate_293", "axis": -1}, "inbound_nodes": [[["dropout_19", 0, 0, {}], ["batch_normalization_320", 0, 0, {}], ["batch_normalization_321", 0, 0, {}], ["batch_normalization_322", 0, 0, {}], ["batch_normalization_323", 0, 0, {}], ["batch_normalization_324", 0, 0, {}], ["batch_normalization_325", 0, 0, {}]]], "name": "concatenate_293"}, {"class_name": "Conv2D", "config": {"kernel_constraint": null, "kernel_initializer": {"class_name": "VarianceScaling", "config": {"distribution": "uniform", "scale": 1.0, "seed": null, "mode": "fan_avg"}}, "name": "conv2d_315", "bias_regularizer": null, "bias_constraint": null, "activation": "relu", "trainable": true, "data_format": "channels_last", "padding": "same", "strides": [1, 1], "dilation_rate": [1, 1], "kernel_regularizer": {"class_name": "L1L2", "config": {"l2": 0.00019999999494757503, "l1": 0.0}}, "filters": 12, "bias_initializer": {"class_name": "Zeros", "config": {}}, "use_bias": true, "activity_regularizer": null, "kernel_size": [3, 3]}, "inbound_nodes": [[["concatenate_293", 0, 0, {}]]], "name": "conv2d_315"}, {"class_name": "BatchNormalization", "config": {"beta_constraint": null, "gamma_initializer": {"class_name": "Ones", "config": {}}, "moving_mean_initializer": {"class_name": "Zeros", "config": {}}, "name": "batch_normalization_326", "epsilon": 0.001, "trainable": true, "moving_variance_initializer": {"class_name": "Ones", "config": {}}, "beta_initializer": {"class_name": "Zeros", "config": {}}, "scale": true, "axis": -1, "gamma_constraint": null, "gamma_regularizer": null, "beta_regularizer": null, "momentum": 0.99, "center": true}, "inbound_nodes": [[["conv2d_315", 0, 0, {}]]], "name": "batch_normalization_326"}, {"class_name": "Concatenate", "config": {"trainable": true, "name": "concatenate_294", "axis": -1}, "inbound_nodes": [[["dropout_19", 0, 0, {}], ["batch_normalization_320", 0, 0, {}], ["batch_normalization_321", 0, 0, {}], ["batch_normalization_322", 0, 0, {}], ["batch_normalization_323", 0, 0, {}], ["batch_normalization_324", 0, 0, {}], ["batch_normalization_325", 0, 0, {}], ["batch_normalization_326", 0, 0, {}]]], "name": "concatenate_294"}, {"class_name": "Conv2D", "config": {"kernel_constraint": null, "kernel_initializer": {"class_name": "VarianceScaling", "config": {"distribution": "uniform", "scale": 1.0, "seed": null, "mode": "fan_avg"}}, "name": "conv2d_316", "bias_regularizer": null, "bias_constraint": null, "activation": "relu", "trainable": true, "data_format": "channels_last", "padding": "same", "strides": [1, 1], "dilation_rate": [1, 1], "kernel_regularizer": {"class_name": "L1L2", "config": {"l2": 0.00019999999494757503, "l1": 0.0}}, "filters": 12, "bias_initializer": {"class_name": "Zeros", "config": {}}, "use_bias": true, "activity_regularizer": null, "kernel_size": [3, 3]}, "inbound_nodes": [[["concatenate_294", 0, 0, {}]]], "name": "conv2d_316"}, {"class_name": "BatchNormalization", "config": {"beta_constraint": null, "gamma_initializer": {"class_name": "Ones", "config": {}}, "moving_mean_initializer": {"class_name": "Zeros", "config": {}}, "name": "batch_normalization_327", "epsilon": 0.001, "trainable": true, "moving_variance_initializer": {"class_name": "Ones", "config": {}}, "beta_initializer": {"class_name": "Zeros", "config": {}}, "scale": true, "axis": -1, "gamma_constraint": null, "gamma_regularizer": null, "beta_regularizer": null, "momentum": 0.99, "center": true}, "inbound_nodes": [[["conv2d_316", 0, 0, {}]]], "name": "batch_normalization_327"}, {"class_name": "Concatenate", "config": {"trainable": true, "name": "concatenate_295", "axis": -1}, "inbound_nodes": [[["dropout_19", 0, 0, {}], ["batch_normalization_320", 0, 0, {}], ["batch_normalization_321", 0, 0, {}], ["batch_normalization_322", 0, 0, {}], ["batch_normalization_323", 0, 0, {}], ["batch_normalization_324", 0, 0, {}], ["batch_normalization_325", 0, 0, {}], ["batch_normalization_326", 0, 0, {}], ["batch_normalization_327", 0, 0, {}]]], "name": "concatenate_295"}, {"class_name": "Conv2D", "config": {"kernel_constraint": null, "kernel_initializer": {"class_name": "VarianceScaling", "config": {"distribution": "uniform", "scale": 1.0, "seed": null, "mode": "fan_avg"}}, "name": "conv2d_317", "bias_regularizer": null, "bias_constraint": null, "activation": "relu", "trainable": true, "data_format": "channels_last", "padding": "same", "strides": [1, 1], "dilation_rate": [1, 1], "kernel_regularizer": {"class_name": "L1L2", "config": {"l2": 0.00019999999494757503, "l1": 0.0}}, "filters": 12, "bias_initializer": {"class_name": "Zeros", "config": {}}, "use_bias": true, "activity_regularizer": null, "kernel_size": [3, 3]}, "inbound_nodes": [[["concatenate_295", 0, 0, {}]]], "name": "conv2d_317"}, {"class_name": "BatchNormalization", "config": {"beta_constraint": null, "gamma_initializer": {"class_name": "Ones", "config": {}}, "moving_mean_initializer": {"class_name": "Zeros", "config": {}}, "name": "batch_normalization_328", "epsilon": 0.001, "trainable": true, "moving_variance_initializer": {"class_name": "Ones", "config": {}}, "beta_initializer": {"class_name": "Zeros", "config": {}}, "scale": true, "axis": -1, "gamma_constraint": null, "gamma_regularizer": null, "beta_regularizer": null, "momentum": 0.99, "center": true}, "inbound_nodes": [[["conv2d_317", 0, 0, {}]]], "name": "batch_normalization_328"}, {"class_name": "Concatenate", "config": {"trainable": true, "name": "concatenate_296", "axis": -1}, "inbound_nodes": [[["dropout_19", 0, 0, {}], ["batch_normalization_320", 0, 0, {}], ["batch_normalization_321", 0, 0, {}], ["batch_normalization_322", 0, 0, {}], ["batch_normalization_323", 0, 0, {}], ["batch_normalization_324", 0, 0, {}], ["batch_normalization_325", 0, 0, {}], ["batch_normalization_326", 0, 0, {}], ["batch_normalization_327", 0, 0, {}], ["batch_normalization_328", 0, 0, {}]]], "name": "concatenate_296"}, {"class_name": "Conv2D", "config": {"kernel_constraint": null, "kernel_initializer": {"class_name": "VarianceScaling", "config": {"distribution": "uniform", "scale": 1.0, "seed": null, "mode": "fan_avg"}}, "name": "conv2d_318", "bias_regularizer": null, "bias_constraint": null, "activation": "relu", "trainable": true, "data_format": "channels_last", "padding": "same", "strides": [1, 1], "dilation_rate": [1, 1], "kernel_regularizer": {"class_name": "L1L2", "config": {"l2": 0.00019999999494757503, "l1": 0.0}}, "filters": 64, "bias_initializer": {"class_name": "Zeros", "config": {}}, "use_bias": true, "activity_regularizer": null, "kernel_size": [3, 3]}, "inbound_nodes": [[["concatenate_296", 0, 0, {}]]], "name": "conv2d_318"}, {"class_name": "BatchNormalization", "config": {"beta_constraint": null, "gamma_initializer": {"class_name": "Ones", "config": {}}, "moving_mean_initializer": {"class_name": "Zeros", "config": {}}, "name": "batch_normalization_329", "epsilon": 0.001, "trainable": true, "moving_variance_initializer": {"class_name": "Ones", "config": {}}, "beta_initializer": {"class_name": "Zeros", "config": {}}, "scale": true, "axis": -1, "gamma_constraint": null, "gamma_regularizer": null, "beta_regularizer": null, "momentum": 0.99, "center": true}, "inbound_nodes": [[["conv2d_318", 0, 0, {}]]], "name": "batch_normalization_329"}, {"class_name": "Conv2DTranspose", "config": {"kernel_constraint": null, "kernel_initializer": {"class_name": "VarianceScaling", "config": {"distribution": "uniform", "scale": 1.0, "seed": null, "mode": "fan_avg"}}, "name": "conv2d_transpose_23", "bias_regularizer": null, "bias_constraint": null, "activation": "linear", "trainable": true, "data_format": "channels_last", "padding": "same", "strides": [2, 2], "kernel_regularizer": null, "filters": 12, "bias_initializer": {"class_name": "Zeros", "config": {}}, "use_bias": true, "activity_regularizer": null, "kernel_size": [2, 2]}, "inbound_nodes": [[["batch_normalization_329", 0, 0, {}]]], "name": "conv2d_transpose_23"}, {"class_name": "Concatenate", "config": {"trainable": true, "name": "xxup9", "axis": 3}, "inbound_nodes": [[["conv2d_transpose_23", 0, 0, {}], ["batch_normalization_201", 0, 0, {}]]], "name": "xxup9"}, {"class_name": "Dropout", "config": {"rate": 0.3, "noise_shape": null, "trainable": true, "seed": null, "name": "dropout_20"}, "inbound_nodes": [[["xxup9", 0, 0, {}]]], "name": "dropout_20"}, {"class_name": "Conv2D", "config": {"kernel_constraint": null, "kernel_initializer": {"class_name": "VarianceScaling", "config": {"distribution": "uniform", "scale": 1.0, "seed": null, "mode": "fan_avg"}}, "name": "conv2d_319", "bias_regularizer": null, "bias_constraint": null, "activation": "relu", "trainable": true, "data_format": "channels_last", "padding": "same", "strides": [1, 1], "dilation_rate": [1, 1], "kernel_regularizer": {"class_name": "L1L2", "config": {"l2": 0.00019999999494757503, "l1": 0.0}}, "filters": 12, "bias_initializer": {"class_name": "Zeros", "config": {}}, "use_bias": true, "activity_regularizer": null, "kernel_size": [3, 3]}, "inbound_nodes": [[["dropout_20", 0, 0, {}]]], "name": "conv2d_319"}, {"class_name": "BatchNormalization", "config": {"beta_constraint": null, "gamma_initializer": {"class_name": "Ones", "config": {}}, "moving_mean_initializer": {"class_name": "Zeros", "config": {}}, "name": "batch_normalization_331", "epsilon": 0.001, "trainable": true, "moving_variance_initializer": {"class_name": "Ones", "config": {}}, "beta_initializer": {"class_name": "Zeros", "config": {}}, "scale": true, "axis": -1, "gamma_constraint": null, "gamma_regularizer": null, "beta_regularizer": null, "momentum": 0.99, "center": true}, "inbound_nodes": [[["conv2d_319", 0, 0, {}]]], "name": "batch_normalization_331"}, {"class_name": "Concatenate", "config": {"trainable": true, "name": "concatenate_297", "axis": -1}, "inbound_nodes": [[["dropout_20", 0, 0, {}], ["batch_normalization_331", 0, 0, {}]]], "name": "concatenate_297"}, {"class_name": "Conv2D", "config": {"kernel_constraint": null, "kernel_initializer": {"class_name": "VarianceScaling", "config": {"distribution": "uniform", "scale": 1.0, "seed": null, "mode": "fan_avg"}}, "name": "conv2d_320", "bias_regularizer": null, "bias_constraint": null, "activation": "relu", "trainable": true, "data_format": "channels_last", "padding": "same", "strides": [1, 1], "dilation_rate": [1, 1], "kernel_regularizer": {"class_name": "L1L2", "config": {"l2": 0.00019999999494757503, "l1": 0.0}}, "filters": 12, "bias_initializer": {"class_name": "Zeros", "config": {}}, "use_bias": true, "activity_regularizer": null, "kernel_size": [3, 3]}, "inbound_nodes": [[["concatenate_297", 0, 0, {}]]], "name": "conv2d_320"}, {"class_name": "BatchNormalization", "config": {"beta_constraint": null, "gamma_initializer": {"class_name": "Ones", "config": {}}, "moving_mean_initializer": {"class_name": "Zeros", "config": {}}, "name": "batch_normalization_332", "epsilon": 0.001, "trainable": true, "moving_variance_initializer": {"class_name": "Ones", "config": {}}, "beta_initializer": {"class_name": "Zeros", "config": {}}, "scale": true, "axis": -1, "gamma_constraint": null, "gamma_regularizer": null, "beta_regularizer": null, "momentum": 0.99, "center": true}, "inbound_nodes": [[["conv2d_320", 0, 0, {}]]], "name": "batch_normalization_332"}, {"class_name": "Concatenate", "config": {"trainable": true, "name": "concatenate_298", "axis": -1}, "inbound_nodes": [[["dropout_20", 0, 0, {}], ["batch_normalization_331", 0, 0, {}], ["batch_normalization_332", 0, 0, {}]]], "name": "concatenate_298"}, {"class_name": "Conv2D", "config": {"kernel_constraint": null, "kernel_initializer": {"class_name": "VarianceScaling", "config": {"distribution": "uniform", "scale": 1.0, "seed": null, "mode": "fan_avg"}}, "name": "conv2d_321", "bias_regularizer": null, "bias_constraint": null, "activation": "relu", "trainable": true, "data_format": "channels_last", "padding": "same", "strides": [1, 1], "dilation_rate": [1, 1], "kernel_regularizer": {"class_name": "L1L2", "config": {"l2": 0.00019999999494757503, "l1": 0.0}}, "filters": 12, "bias_initializer": {"class_name": "Zeros", "config": {}}, "use_bias": true, "activity_regularizer": null, "kernel_size": [3, 3]}, "inbound_nodes": [[["concatenate_298", 0, 0, {}]]], "name": "conv2d_321"}, {"class_name": "BatchNormalization", "config": {"beta_constraint": null, "gamma_initializer": {"class_name": "Ones", "config": {}}, "moving_mean_initializer": {"class_name": "Zeros", "config": {}}, "name": "batch_normalization_333", "epsilon": 0.001, "trainable": true, "moving_variance_initializer": {"class_name": "Ones", "config": {}}, "beta_initializer": {"class_name": "Zeros", "config": {}}, "scale": true, "axis": -1, "gamma_constraint": null, "gamma_regularizer": null, "beta_regularizer": null, "momentum": 0.99, "center": true}, "inbound_nodes": [[["conv2d_321", 0, 0, {}]]], "name": "batch_normalization_333"}, {"class_name": "Concatenate", "config": {"trainable": true, "name": "concatenate_299", "axis": -1}, "inbound_nodes": [[["dropout_20", 0, 0, {}], ["batch_normalization_331", 0, 0, {}], ["batch_normalization_332", 0, 0, {}], ["batch_normalization_333", 0, 0, {}]]], "name": "concatenate_299"}, {"class_name": "Conv2DTranspose", "config": {"kernel_constraint": null, "kernel_initializer": {"class_name": "VarianceScaling", "config": {"distribution": "uniform", "scale": 1.0, "seed": null, "mode": "fan_avg"}}, "name": "conv2d_transpose_18", "bias_regularizer": null, "bias_constraint": null, "activation": "linear", "trainable": true, "data_format": "channels_last", "padding": "same", "strides": [8, 8], "kernel_regularizer": null, "filters": 12, "bias_initializer": {"class_name": "Zeros", "config": {}}, "use_bias": true, "activity_regularizer": null, "kernel_size": [2, 2]}, "inbound_nodes": [[["xxup6", 0, 0, {}]]], "name": "conv2d_transpose_18"}, {"class_name": "Conv2DTranspose", "config": {"kernel_constraint": null, "kernel_initializer": {"class_name": "VarianceScaling", "config": {"distribution": "uniform", "scale": 1.0, "seed": null, "mode": "fan_avg"}}, "name": "conv2d_transpose_20", "bias_regularizer": null, "bias_constraint": null, "activation": "linear", "trainable": true, "data_format": "channels_last", "padding": "same", "strides": [4, 4], "kernel_regularizer": null, "filters": 12, "bias_initializer": {"class_name": "Zeros", "config": {}}, "use_bias": true, "activity_regularizer": null, "kernel_size": [2, 2]}, "inbound_nodes": [[["dropout_18", 0, 0, {}]]], "name": "conv2d_transpose_20"}, {"class_name": "Conv2DTranspose", "config": {"kernel_constraint": null, "kernel_initializer": {"class_name": "VarianceScaling", "config": {"distribution": "uniform", "scale": 1.0, "seed": null, "mode": "fan_avg"}}, "name": "conv2d_transpose_22", "bias_regularizer": null, "bias_constraint": null, "activation": "linear", "trainable": true, "data_format": "channels_last", "padding": "same", "strides": [2, 2], "kernel_regularizer": null, "filters": 12, "bias_initializer": {"class_name": "Zeros", "config": {}}, "use_bias": true, "activity_regularizer": null, "kernel_size": [2, 2]}, "inbound_nodes": [[["dropout_19", 0, 0, {}]]], "name": "conv2d_transpose_22"}, {"class_name": "Conv2DTranspose", "config": {"kernel_constraint": null, "kernel_initializer": {"class_name": "VarianceScaling", "config": {"distribution": "uniform", "scale": 1.0, "seed": null, "mode": "fan_avg"}}, "name": "conv2d_transpose_24", "bias_regularizer": null, "bias_constraint": null, "activation": "linear", "trainable": true, "data_format": "channels_last", "padding": "same", "strides": [1, 1], "kernel_regularizer": null, "filters": 12, "bias_initializer": {"class_name": "Zeros", "config": {}}, "use_bias": true, "activity_regularizer": null, "kernel_size": [2, 2]}, "inbound_nodes": [[["dropout_20", 0, 0, {}]]], "name": "conv2d_transpose_24"}, {"class_name": "Conv2D", "config": {"kernel_constraint": null, "kernel_initializer": {"class_name": "VarianceScaling", "config": {"distribution": "uniform", "scale": 1.0, "seed": null, "mode": "fan_avg"}}, "name": "conv2d_322", "bias_regularizer": null, "bias_constraint": null, "activation": "relu", "trainable": true, "data_format": "channels_last", "padding": "same", "strides": [1, 1], "dilation_rate": [1, 1], "kernel_regularizer": {"class_name": "L1L2", "config": {"l2": 0.00019999999494757503, "l1": 0.0}}, "filters": 32, "bias_initializer": {"class_name": "Zeros", "config": {}}, "use_bias": true, "activity_regularizer": null, "kernel_size": [3, 3]}, "inbound_nodes": [[["concatenate_299", 0, 0, {}]]], "name": "conv2d_322"}, {"class_name": "BatchNormalization", "config": {"beta_constraint": null, "gamma_initializer": {"class_name": "Ones", "config": {}}, "moving_mean_initializer": {"class_name": "Zeros", "config": {}}, "name": "batch_normalization_275", "epsilon": 0.001, "trainable": true, "moving_variance_initializer": {"class_name": "Ones", "config": {}}, "beta_initializer": {"class_name": "Zeros", "config": {}}, "scale": true, "axis": -1, "gamma_constraint": null, "gamma_regularizer": null, "beta_regularizer": null, "momentum": 0.99, "center": true}, "inbound_nodes": [[["conv2d_transpose_18", 0, 0, {}]]], "name": "batch_normalization_275"}, {"class_name": "BatchNormalization", "config": {"beta_constraint": null, "gamma_initializer": {"class_name": "Ones", "config": {}}, "moving_mean_initializer": {"class_name": "Zeros", "config": {}}, "name": "batch_normalization_297", "epsilon": 0.001, "trainable": true, "moving_variance_initializer": {"class_name": "Ones", "config": {}}, "beta_initializer": {"class_name": "Zeros", "config": {}}, "scale": true, "axis": -1, "gamma_constraint": null, "gamma_regularizer": null, "beta_regularizer": null, "momentum": 0.99, "center": true}, "inbound_nodes": [[["conv2d_transpose_20", 0, 0, {}]]], "name": "batch_normalization_297"}, {"class_name": "BatchNormalization", "config": {"beta_constraint": null, "gamma_initializer": {"class_name": "Ones", "config": {}}, "moving_mean_initializer": {"class_name": "Zeros", "config": {}}, "name": "batch_normalization_319", "epsilon": 0.001, "trainable": true, "moving_variance_initializer": {"class_name": "Ones", "config": {}}, "beta_initializer": {"class_name": "Zeros", "config": {}}, "scale": true, "axis": -1, "gamma_constraint": null, "gamma_regularizer": null, "beta_regularizer": null, "momentum": 0.99, "center": true}, "inbound_nodes": [[["conv2d_transpose_22", 0, 0, {}]]], "name": "batch_normalization_319"}, {"class_name": "BatchNormalization", "config": {"beta_constraint": null, "gamma_initializer": {"class_name": "Ones", "config": {}}, "moving_mean_initializer": {"class_name": "Zeros", "config": {}}, "name": "batch_normalization_330", "epsilon": 0.001, "trainable": true, "moving_variance_initializer": {"class_name": "Ones", "config": {}}, "beta_initializer": {"class_name": "Zeros", "config": {}}, "scale": true, "axis": -1, "gamma_constraint": null, "gamma_regularizer": null, "beta_regularizer": null, "momentum": 0.99, "center": true}, "inbound_nodes": [[["conv2d_transpose_24", 0, 0, {}]]], "name": "batch_normalization_330"}, {"class_name": "BatchNormalization", "config": {"beta_constraint": null, "gamma_initializer": {"class_name": "Ones", "config": {}}, "moving_mean_initializer": {"class_name": "Zeros", "config": {}}, "name": "batch_normalization_334", "epsilon": 0.001, "trainable": true, "moving_variance_initializer": {"class_name": "Ones", "config": {}}, "beta_initializer": {"class_name": "Zeros", "config": {}}, "scale": true, "axis": -1, "gamma_constraint": null, "gamma_regularizer": null, "beta_regularizer": null, "momentum": 0.99, "center": true}, "inbound_nodes": [[["conv2d_322", 0, 0, {}]]], "name": "batch_normalization_334"}, {"class_name": "Concatenate", "config": {"trainable": true, "name": "concatenate_300", "axis": -1}, "inbound_nodes": [[["batch_normalization_275", 0, 0, {}], ["batch_normalization_297", 0, 0, {}], ["batch_normalization_319", 0, 0, {}], ["batch_normalization_330", 0, 0, {}], ["batch_normalization_334", 0, 0, {}]]], "name": "concatenate_300"}, {"class_name": "Conv2D", "config": {"kernel_constraint": null, "kernel_initializer": {"class_name": "VarianceScaling", "config": {"distribution": "uniform", "scale": 1.0, "seed": null, "mode": "fan_avg"}}, "name": "xxoutput1", "bias_regularizer": null, "bias_constraint": null, "activation": "sigmoid", "trainable": true, "data_format": "channels_last", "padding": "valid", "strides": [1, 1], "dilation_rate": [1, 1], "kernel_regularizer": null, "filters": 1, "bias_initializer": {"class_name": "Zeros", "config": {}}, "use_bias": true, "activity_regularizer": null, "kernel_size": [1, 1]}, "inbound_nodes": [[["batch_normalization_275", 0, 0, {}]]], "name": "xxoutput1"}, {"class_name": "Conv2D", "config": {"kernel_constraint": null, "kernel_initializer": {"class_name": "VarianceScaling", "config": {"distribution": "uniform", "scale": 1.0, "seed": null, "mode": "fan_avg"}}, "name": "xxoutput2", "bias_regularizer": null, "bias_constraint": null, "activation": "sigmoid", "trainable": true, "data_format": "channels_last", "padding": "valid", "strides": [1, 1], "dilation_rate": [1, 1], "kernel_regularizer": null, "filters": 1, "bias_initializer": {"class_name": "Zeros", "config": {}}, "use_bias": true, "activity_regularizer": null, "kernel_size": [1, 1]}, "inbound_nodes": [[["batch_normalization_297", 0, 0, {}]]], "name": "xxoutput2"}, {"class_name": "Conv2D", "config": {"kernel_constraint": null, "kernel_initializer": {"class_name": "VarianceScaling", "config": {"distribution": "uniform", "scale": 1.0, "seed": null, "mode": "fan_avg"}}, "name": "xxoutput3", "bias_regularizer": null, "bias_constraint": null, "activation": "sigmoid", "trainable": true, "data_format": "channels_last", "padding": "valid", "strides": [1, 1], "dilation_rate": [1, 1], "kernel_regularizer": null, "filters": 1, "bias_initializer": {"class_name": "Zeros", "config": {}}, "use_bias": true, "activity_regularizer": null, "kernel_size": [1, 1]}, "inbound_nodes": [[["batch_normalization_319", 0, 0, {}]]], "name": "xxoutput3"}, {"class_name": "Conv2D", "config": {"kernel_constraint": null, "kernel_initializer": {"class_name": "VarianceScaling", "config": {"distribution": "uniform", "scale": 1.0, "seed": null, "mode": "fan_avg"}}, "name": "xxoutput4", "bias_regularizer": null, "bias_constraint": null, "activation": "sigmoid", "trainable": true, "data_format": "channels_last", "padding": "valid", "strides": [1, 1], "dilation_rate": [1, 1], "kernel_regularizer": null, "filters": 1, "bias_initializer": {"class_name": "Zeros", "config": {}}, "use_bias": true, "activity_regularizer": null, "kernel_size": [1, 1]}, "inbound_nodes": [[["batch_normalization_330", 0, 0, {}]]], "name": "xxoutput4"}, {"class_name": "Conv2D", "config": {"kernel_constraint": null, "kernel_initializer": {"class_name": "VarianceScaling", "config": {"distribution": "uniform", "scale": 1.0, "seed": null, "mode": "fan_avg"}}, "name": "xxconv10", "bias_regularizer": null, "bias_constraint": null, "activation": "sigmoid", "trainable": true, "data_format": "channels_last", "padding": "valid", "strides": [1, 1], "dilation_rate": [1, 1], "kernel_regularizer": null, "filters": 1, "bias_initializer": {"class_name": "Zeros", "config": {}}, "use_bias": true, "activity_regularizer": null, "kernel_size": [1, 1]}, "inbound_nodes": [[["batch_normalization_334", 0, 0, {}]]], "name": "xxconv10"}, {"class_name": "Conv2D", "config": {"kernel_constraint": null, "kernel_initializer": {"class_name": "VarianceScaling", "config": {"distribution": "uniform", "scale": 1.0, "seed": null, "mode": "fan_avg"}}, "name": "xxfinal_op", "bias_regularizer": null, "bias_constraint": null, "activation": "sigmoid", "trainable": true, "data_format": "channels_last", "padding": "valid", "strides": [1, 1], "dilation_rate": [1, 1], "kernel_regularizer": null, "filters": 1, "bias_initializer": {"class_name": "Zeros", "config": {}}, "use_bias": true, "activity_regularizer": null, "kernel_size": [1, 1]}, "inbound_nodes": [[["concatenate_300", 0, 0, {}]]], "name": "xxfinal_op"}], "input_layers": [["input_1", 0, 0]], "output_layers": [["output1", 0, 0], ["output2", 0, 0], ["output3", 0, 0], ["output4", 0, 0], ["conv10", 0, 0], ["final_op", 0, 0], ["xoutput1", 0, 0], ["xoutput2", 0, 0], ["xoutput3", 0, 0], ["xoutput4", 0, 0], ["xconv10", 0, 0], ["xfinal_op", 0, 0], ["xxoutput1", 0, 0], ["xxoutput2", 0, 0], ["xxoutput3", 0, 0], ["xxoutput4", 0, 0], ["xxconv10", 0, 0], ["xxfinal_op", 0, 0]], "name": "model_1"}, "backend": "tensorflow"}